w5/discriminator.pth (torch, 558539 bytes, 7 tensors)

main.0.weight f4 [64, 1, 4, 4]
-0.10765147 -0.1293996 0.1141432 0.22070353 0.15044312 -0.11023989 -0.12134588 0.069877826
-0.029037511 0.255897 -0.14670801 -0.18854243 0.057282485 -0.06633617 -0.15068555 0.0851247
0.06840427 0.06649806 -0.1521327 0.093597345 -0.07148952 -0.04983255 -0.13142428 -0.0067058904
0.046072632 -0.03909783 0.09857824 0.07890212 -0.11838229 -0.049386203 -0.08817086 0.18317531
0.12392108 -0.3049501 0.19238414 0.0059126844 0.103414394 -0.27086258 0.16857763 -0.19362997
-0.17644735 0.086633995 0.12259469 0.05029199 -0.06644554 0.13001926 0.009607095 0.022173155
0.035170857 0.21844885 -0.18157794 0.24518548 -0.211216 -0.064395696 0.19965328 -0.24570225
-0.10341066 -0.13154304 -0.114888124 0.157052 -0.036240466 0.07593608 0.2296763 -0.12889287
0.10818465 0.059318665 0.16739148 0.13573325 0.034998074 0.038409173 0.18415964 0.17465732
-0.14351434 0.05157198 0.024185844 0.13285533 -0.18926921 0.09907691 -0.1860235 0.06923986
-0.082429215 0.014849401 -0.10207266 0.22273605 0.20129271 0.0138290115 -0.09012116 -0.033806834
0.1439376 -0.16379018 0.07489647 0.10314422 -0.19643417 -0.20045923 0.055312566 0.03873446
0.10496983 0.050800886 0.18888101 0.15626124 -0.10903371 -0.107752234 -0.14965521 0.14432964
0.092294864 -0.25400707 -0.07211967 0.0038386867 0.00711546 -0.23376055 0.19418736 0.12734443
-0.022783903 -0.023287794 0.2559823 -0.112235576 0.025386635 0.071581066 -0.12320341 -0.2047735
-0.1375567 0.030323012 -0.13549547 0.15777174 0.068161584 -0.18838324 -0.072104245 -0.05650229
-0.011376026 0.102508046 0.23630877 -0.2263678 0.07330388 -0.22146997 -0.0494495 0.01630811
-0.19499488 -0.16527607 0.12424381 -0.2034305 0.20048499 -0.06145776 0.18602066 0.19851933
0.06842496 0.03811288 -0.15744098 -0.15949324 -0.15115231 0.12855007 0.052440654 0.0025549713
-0.08511195 -0.1642656 0.067084186 -0.19638558 -0.1921493 0.23691437 0.16090116 -0.20050639
0.07763704 -0.026947979 -0.041566383 -0.1281167 -0.165474 -0.24510983 0.21789481 0.12690395
-0.11373875 0.16728814 0.033705458 0.009367789 0.17821234 0.06316524 -0.10719953 -0.050712086
-0.08816979 0.08405612 0.031719815 -0.00274971 0.083921835 -0.016861085 -0.018872427 -0.23303445
0.03834437 0.21806023 -0.19175366 -0.23505409 0.14174472 0.060888387 0.077556945 -0.04559864
0.040610693 0.0061672316 0.02726496 -0.027773736 -0.083448306 -0.16207321 0.04737103 -0.15583761
0.043661747 -0.08406387 0.058029253 0.085062146 0.036214296 -0.076233946 0.12605822 0.0017282567
0.12258526 -0.15862563 -0.028526638 0.20032658 0.21457912 0.11373531 0.19476834 -0.031716757
-0.25244752 -0.02654039 -0.1165649 -0.18097764 -0.072326235 0.06317676 -0.1690279 0.12400335
0.06665307 0.00066513487 -0.1258803 -0.14386046 0.19500008 -0.24286623 -0.23910698 -0.05588095
0.07529611 0.14757068 0.120161995 -0.0691479 0.19021906 0.044191286 -0.029160812 0.1572726
-0.062098216 -0.1167125 0.21209753 0.16524109 0.2391759 -0.033135857 0.0075135436 0.22691028
-0.12303482 -0.18385074 0.12826146 -0.14478186 0.04517958 -0.17671819 -0.17187032 -0.007211543
00000000: 6078 dcbd 5481 04be e9c3 e93d 1b00 623e
00000010: c30d 1a3e 74c5 e1bd 3084 f8bd 1b1c 8f3d
00000020: 13e0 edbc ee04 833e a03a 16be 4411 41be
00000030: 0aa1 6a3d 42db 87bd 504d 1abe dc55 ae3d
00000040: 8a17 8c3d 2330 883d adc8 1bbe f7af bf3d
00000050: 1969 92bd 371d 4cbd 1694 06be 16bd dbbb
00000060: a8b6 3c3d 0c25 20bd 63e3 c93d 6f97 a13d
00000070: 6a72 f2bd 3049 4abd ed92 b4bd 4f92 3b3e
00000080: 56ca fd3d 6b22 9cbe 5900 453e 31bf c13b
00000090: edca d33d 80ae 8abe 9d9f 2c3e ef46 46be
000000a0: 9dae 34be 2a6d b13d ed12 fb3d f9fe 4d3d
000000b0: 9914 88bd c523 053e 1467 1d3c 7aa4 b53c
000000c0: 510f 103d 0eb1 5f3e 91ef 39be e711 7b3e
000000d0: 0249 58be e4e1 83bd e971 4c3e 5f99 7bbe
000000e0: f8c8 d3bd 38b3 06be 774a ebbd 3dd2 203e
000000f0: e270 14bd 6084 9b3d 4430 6b3e 7efc 03be
00000100: ea8f dd3d 21f8 723d ac68 2b3e a8fd 0a3e
00000110: 245a 0f3d f052 1d3d 5894 3c3e 5ed9 323e
00000120: 6cf5 12be 243d 533d 6421 c63c 3a0b 083e
00000130: cacf 41be d6e8 ca3d f27c 3ebe a1cd 8d3d
00000140: a6d0 a8bd e74a 733c 790b d1bd eb14 643e
00000150: ad1f 4e3e 1493 623c 7191 b8bd 0979 0abd
00000160: 6164 133e 9db8 27be 5263 993d 473d d33d
00000170: 0a26 49be 2f45 4dbe 6e8f 623d 06a8 1e3d
00000180: 6cfa d63d 9714 503d 066a 413e f202 203e
00000190: 114d dfbd 34ad dcbd 373f 19be 26cb 133e
000001a0: 1705 bd3d 370d 82be 7ab3 93bd 7a92 7b3b
000001b0: ce28 e93b ed5e 6fbe 0dd9 463e 9466 023e
000001c0: 4fa5 babc 0bc6 bebc 1d10 833e c4db e5bd
000001d0: a2f7 cf3c 1899 923d 1252 fcbd 25b0 51be
000001e0: aadb 0cbe f767 f83c 53bf 0abe ea8e 213e
000001f0: 4d98 8b3d 89e7 40be 64ab 93bd f26e 67bd
00000200: 8362 3abc bdef d13d edfa 713e f6cc 67be
00000210: 5820 963d 06c9 62be 8f8b 4abd 9698 853c
00000220: bdac 47be 213e 29be 8a73 fe3d 1650 50be
00000230: f04b 4d3e 22bb 7bbd 337c 3e3e a748 4b3e
00000240: 6322 8c3d 401c 1c3d 3538 21be 3252 23be
00000250: acc7 1abe a1a2 033e 03cc 563d 4e71 273b
00000260: 2d4f aebd 3e35 28be 6f63 893d 4d19 49be
00000270: c9c2 44be ae99 723e 46c3 243e 8c51 4dbe
00000280: 2b00 9f3d 02c2 dcbc 8341 2abd 0631 03be
00000290: 0472 29be 12fe 7abe d11f 5f3e 1cf3 013e
000002a0: ddef e8bd 954d 2b3e bc0e 0a3d 5b7b 193c
000002b0: 4c7d 363e c75c 813d 6d8b dbbd 7ab7 4fbd
000002c0: 5d92 b4bd 9d25 ac3d a3ec 013d 7b34 34bb
000002d0: 36df ab3d 4220 8abc 599a 9abc 95a0 6ebe
000002e0: fc0e 1d3d 2e4b 5f3e 125b 44be 05b2 70be
000002f0: 8725 113e 1a66 793d 2dd6 9e3d a4c5 3abd
00000300: 6657 263d 7d16 ca3b c45a df3c bf85 e3bc
00000310: f2e6 aabd 85f6 25be 2008 423d e593 1fbe
00000320: a9d6 323d ae29 acbd 15b0 6d3d 1035 ae3d
00000330: 7155 143d 8b20 9cbd 6815 013e ac86 e23a
00000340: fb0d fb3d c26e 22be b2b0 e9bc 6922 4d3e
00000350: a1ba 5b3e 0fee e83d 5a71 473e 6ee9 01bd
00000360: cd40 81be 3b6b d9bc 94b9 eebd 3452 39be
00000370: c71f 94bd d162 813d a615 2dbe 78f5 fd3d
00000380: 6881 883d 725c 2e3a c4e6 00be 2850 13be
00000390: 1aae 473e edb1 78be 76d8 74be 6ce3 64bd
000003a0: d934 9a3d c51c 173e 7e17 f63d 6a9d 8dbd
000003b0: c9c8 423e ec01 353d a8e2 eebc 120c 213e
000003c0: b35a 7ebd f706 efbd 1830 593e f634 293e
000003d0: 87ea 743e 77b9 07bd 2c34 f63b 2b5b 683e
000003e0: aef9 fbbd 5e43 3cbe f956 033e b241 14be
000003f0: 390e 393d 9df5 34be c6fe 2fbe cf4e ecbb

main.2.weight f4 [128, 64, 4, 4]
-0.042825785 0.0057310397 -0.01349265 0.010216611 -0.011404194 0.0118414285 -0.02057177 -0.0032823444
0.010654224 0.02937904 -0.002426555 -0.041428603 0.013186698 0.03913665 -0.01384778 0.015678441
0.02810832 -0.0031589742 0.0048426613 -0.00011919371 -0.021685831 -0.024445273 0.027509853 -0.022197459
0.0039563747 -0.011358263 -0.007859318 -0.00021890571 0.026414707 0.018008808 -0.011805545 -0.00950084
-0.02762571 -0.017178683 -0.020533564 0.009195032 -0.016072145 0.060379904 0.03729169 -0.0029970298
-0.0245026 0.02712621 0.02532589 0.030867506 -0.05813626 0.006971235 0.01195931 -0.013018094
-0.034182586 -0.04155066 -0.023198867 -0.029995136 -0.010537536 0.009652263 0.007227757 -0.022479305
-0.021891922 -0.007052238 0.023538243 -0.013381304 -0.013315545 -0.019684326 -0.004206261 0.030612186
0.010827921 0.016456716 0.034189295 -0.014554896 -0.011058469 0.025995534 0.010230985 -0.012779052
-0.010143693 -0.028048895 0.013337745 -0.029151203 -0.0047648903 -0.020353474 -0.030178748 0.010114976
-0.004003523 -0.013687604 -0.01754708 -0.013980681 0.011376497 -0.020727338 0.039159045 0.043900296
0.019074328 0.025189457 0.033726394 -0.008146662 -0.026258415 0.006284176 0.032357164 0.006297162
0.017728835 -0.0007226219 -0.01669454 0.0023923127 0.0185474 0.025287706 -0.024056124 0.0022132813
0.015447499 0.026063839 0.007285423 -0.015331345 0.03157271 -0.0047143833 -0.026387451 0.028860023
-0.0045559877 0.0040303385 0.020546442 0.0033352703 -0.03507443 -0.023677392 0.018375894 0.013224452
-0.0014979531 -0.02535877 0.013400311 0.030511236 -0.025091052 0.018019104 -0.0031821334 0.025736954
-0.03534464 -0.048934985 -0.029168215 -0.06339123 0.039102692 -0.004531793 0.04613513 0.013179333
-0.0002194046 0.010541717 -0.004803743 -0.039547313 -0.021227611 -0.05293672 0.014107088 -0.03376676
-0.033717826 -0.016364953 -0.025102522 -0.006050452 -0.012388089 -0.008936802 0.00094619446 -0.007607657
-0.0013798118 -0.005251406 -0.015803171 0.021775242 -0.020530522 -0.014942574 -0.022025475 -0.010477736
-0.046195943 -0.072308965 0.0022051113 -0.023263264 -0.034182906 0.013937425 0.084680855 0.050180018
0.013996706 0.019433433 0.043868884 -0.009153993 -0.010524484 0.00080844754 -0.020295382 -0.02811825
-0.018546274 0.008395679 -0.060724664 0.014174687 0.0020160628 0.015073404 0.023452608 -0.038509164
-0.033269893 -0.008831283 -0.03451373 0.003086662 -0.010117356 -0.0060089533 0.017505823 -0.023110924
0.019749377 0.025067506 -0.007685255 0.0011347677 -0.014530402 -0.0058496664 0.01793374 0.009266017
0.02381375 -0.014280317 0.02411405 -0.020776087 -0.031493682 0.02319211 -0.016443985 -9.640646e-05
-0.04670954 -0.013521786 -0.05149278 -0.04767636 -0.017985882 0.007974286 0.017148321 0.008177294
0.00809232 0.020024301 -0.018369658 0.044481285 -0.040367916 0.004218516 -0.03988874 -0.055162877
0.009775506 0.0083736405 -0.042456485 0.031148052 -0.0070627322 -0.002451645 0.002341284 0.010593647
0.026989995 -0.011367519 0.022596717 0.023178533 0.011458857 -0.02936974 -0.016816081 -0.025471194
-0.008444733 -0.015926775 -0.017585577 -0.0014232538 -0.005277814 0.02219611 0.0035306837 0.0031399613
0.0013991768 -0.0062186616 0.013118429 -0.016817754 0.0144652715 0.015492934 0.024544146 -0.04556489
00000000: 176a 2fbd 72cb bb3b 4710 5dbc 9363 273c
00000010: a8d8 3abc 8d02 423c 2186 a8bc 9a1c 57bb
00000020: 0e8f 2e3c 50ac f03c d606 1fbb 0ab1 29bd
00000030: 050d 583c c04d 203d cde1 62bc 1370 803c
00000040: 6b43 e63c cb06 4fbb 30af 9e3b a3f7 f9b8
00000050: 7ca6 b1bc 7441 c8bc 585c e13c 72d7 b5bc
00000060: 7aa4 813b 0218 3abc 5ec4 00bc 0e8a 65b9
00000070: a863 d83c 3587 933c 0b6c 41bc 69a9 1bbc
00000080: 504f e2bc 4fba 8cbc 0136 a8bc c2a6 163c
00000090: bba9 83bc eb50 773d 2cbf 183d d169 44bb
000000a0: adb9 c8bc c937 de3c 3e78 cf3c dadd fc3c
000000b0: 4920 6ebd f56e e43b fbf0 433c d849 55bc
000000c0: 0a03 0cbd 0631 2abd 8d0b bebc 5cb8 f5bc
000000d0: a1a5 2cbc 8624 1e3c d2d6 ec3b 8526 b8bc
000000e0: b056 b3bc 7616 e7bb 46d3 c03c 423d 5bbc
000000f0: 7229 5abc 0641 a1bc add4 89bb 68c6 fa3c
00000100: 9867 313c 3cd0 863c 130a 0c3d a977 6ebc
00000110: 952e 35bc 96f4 d43c dc9f 273c 3b5f 51bc
00000120: bb31 26bc ccc6 e5bc 8f86 5a3c 81ce eebc
00000130: cc22 9cbb 54bc a6bc 6c39 f7bc 49b9 253c
00000140: fc2f 83bb f941 60bc e5be 8fbc 3a0f 65bc
00000150: 7d64 3a3c 61cc a9bc 3c65 203d ccd0 333d
00000160: c441 9c3c 1f5a ce3c b024 0a3d 9479 05bc
00000170: e31b d7bc 7deb cd3b f288 043d 6c58 ce3b
00000180: 103c 913c 566e 3dba fdc2 88bc 59c8 1c3b
00000190: b8f0 973c 2a28 cf3c 5911 c5bc b30c 113b
000001a0: 8217 7d3c d583 d53c 8fba ee3b 5230 7bbc
000001b0: 6352 013d 1d7b 9abb 7f2a d8bc db6b ec3c
000001c0: 654a 95bb ee10 843b 0351 a83c 8d94 5a3b
000001d0: 35aa 0fbd 17f7 c1bc 0b89 963c 5fab 583c
000001e0: f756 c4ba 32bd cfbc fa8c 5b3c b3f2 f93c
000001f0: c08b cdbc cd9c 933c 578b 50bb 4ed6 d23c
00000200: 8bc5 10bd 0d70 48bd 2ef2 eebc 43d3 81bd
00000210: 252a 203d 6f7f 94bb 31f8 3c3d 21ee 573c
00000220: f90f 66b9 2ab7 2c3c b868 9dbb 5dfc 21bd
00000230: 87e5 adbc 2dd4 58bd 6a21 673c 044f 0abd
00000240: b41b 0abd cb0f 86bc cea3 cdbc df42 c6bb
00000250: 69f7 4abc aa6b 12bc 090a 783a a749 f9bb
00000260: cdda b4ba fd13 acbb a775 81bc fe61 b23c
00000270: a02f a8bc b3d1 74bc c56e b4bc cfaa 2bbc
00000280: f537 3dbd b916 94bd a183 103b 9a92 bebc
00000290: 6003 0cbd cc59 643c 286d ad3d 9089 4d3d
000002a0: 7152 653c dd32 9f3c dcaf 333d a1fa 15bc
000002b0: e36e 2cbc ffed 533a 8042 a6bc 3f58 e6bc
000002c0: 5bee 97bc 088e 093c 6dba 78bd f23c 683c
000002d0: ec1f 043b 70f6 763c af1f c03c c9bb 1dbd
000002e0: 0346 08bd 16b1 10bc 455e 0dbd 9849 4a3b
000002f0: 44c3 25bc c1e6 c4bb 5f68 8f3c 1f53 bdbc
00000300: 72c9 a13c 5f5a cd3c 97d4 fbbb 7cbc 943a
00000310: ec10 6ebc 8fae bfbb c7e9 923c 7ed0 173c
00000320: 0e15 c33c fef7 69bc d48a c53c 9d32 aabc
00000330: 85ff 00bd 61fd bd3c 89b5 86bc d32d cab8
00000340: 8152 3fbd 7b8a 5dbc 18ea 52bd 4948 43bd
00000350: 2157 93bc 94a6 023c a37a 8c3c 0ffa 053c
00000360: a695 043c 010a a43c f77b 96bc 0232 363d
00000370: d458 25bd 7a3b 8a3b 6062 23bd 78f2 61bd
00000380: 7229 203c 9831 093c dae6 2dbd 332a ff3c
00000390: 7e6e e7bb c7ab 20bb 3a70 193b fa90 2d3c
000003a0: 1f1a dd3c d53e 3abc c01c b93c e8e0 bd3c
000003b0: eebd 3b3c cf98 f0bc e1c1 89bc f7a8 d0bc
000003c0: c75b 0abc de78 82bc a10f 90bc 798c baba
000003d0: 83f1 acbb 9ed4 b53c 0b63 673b cfc7 4d3b
000003e0: 9564 b73a eac5 cbbb aeee 563c 63c5 89bc
000003f0: bfff 6c3c 13d6 7d3c ce10 c93c 40a2 3abd

main.3.weight f4 [128]
1.0571086 1.0461481 1.0388117 1.0693967 1.0922246 1.0470675 1.0409849 1.0549836
1.0330274 1.0468479 1.0564951 1.0338526 1.0612803 1.0453401 1.0670558 1.0891277
1.0658895 1.0676237 1.0302087 1.0561354 1.055557 1.0484271 1.0380313 1.0722668
1.0296063 1.0793704 1.0320086 1.0542576 1.0691929 1.040904 1.0329051 1.0472544
1.0835595 1.045194 1.0685364 1.0367255 1.0319912 1.0390549 1.0582578 1.0224655
1.1719046 1.0588167 1.1011536 1.0439072 1.0521325 1.0388254 1.0533786 1.0783546
1.0228301 1.0190078 1.0590677 1.0873451 1.0683377 1.0719131 1.0534072 1.032059
1.0467008 1.1003426 1.039892 1.0341812 1.0807217 1.0305917 1.0578878 1.0293794
1.0326464 1.086884 1.0384341 1.0538622 1.0315657 1.0399842 1.0575569 1.0533752
1.0506243 1.0588897 1.0428251 1.0292677 1.0574968 1.0296973 1.0562055 1.1027675
1.0330135 1.0613829 1.0433202 1.0673605 1.0666503 1.0806097 1.0394543 1.0719036
1.0732743 1.0239927 1.0755692 1.0549974 1.0252173 1.0558097 1.0453916 1.0711739
1.065034 1.044462 1.033963 1.0374378 1.0555388 1.0773935 1.0403754 1.0719866
1.0210147 1.0519713 1.0488528 1.051263 1.0525458 1.0663157 1.0530481 1.0542932
1.042066 1.0668697 1.0383861 1.0589228 1.07203 1.0305912 1.0922499 1.0449579
1.0410253 1.037075 1.0346099 1.0263478 1.0486796 1.0253136 1.0764288 1.0574484
00000000: 564f 873f 2ee8 853f c8f7 843f fee1 883f
00000010: 04ce 8b3f 4f06 863f fe3e 853f b409 873f
00000020: 3e3a 843f 1dff 853f 3b3b 873f 4855 843f
00000030: 08d8 873f b4cd 853f 4995 883f 8968 8b3f
00000040: 116f 883f e5a7 883f e1dd 833f 722f 873f
00000050: 7e1c 873f dc32 863f 36de 843f 0a40 893f
00000060: 24ca 833f cf28 8a3f dc18 843f eaf1 863f
00000070: 50db 883f 583c 853f 3c36 843f 6f0c 863f
00000080: 14b2 8a3f ebc8 853f cdc5 883f 6cb3 843f
00000090: 4a18 843f c0ff 843f fe74 873f 26e0 823f
000000a0: f800 963f 4e87 873f 9af2 8c3f c09e 853f
000000b0: 47ac 863f 3bf8 843f 1cd5 863f 8607 8a3f
000000c0: 19ec 823f d96e 823f 888f 873f 202e 8b3f
000000d0: 4abf 883f 7334 893f 0cd6 863f 821a 843f
000000e0: 4bfa 853f 07d8 8c3f 2e1b 853f 0d60 843f
000000f0: 1755 8a3f 6eea 833f de68 873f b4c2 833f
00000100: c22d 843f 041f 8b3f 69eb 843f f5e4 863f
00000110: 580a 843f 341e 853f 065e 873f 00d5 863f
00000120: db7a 863f b389 873f 4b7b 853f 0bbf 833f
00000130: 0e5c 873f 1fcd 833f be31 873f 7c27 8d3f
00000140: c939 843f 65db 873f 848b 853f 459f 883f
00000150: ff87 883f 6b51 8a3f d70c 853f 2334 893f
00000160: 0d61 893f 3112 833f 40ac 893f 280a 873f
00000170: 523a 833f c624 873f 64cf 853f 3a1c 893f
00000180: 0953 883f eeb0 853f e658 843f c3ca 843f
00000190: e51b 873f 08e8 893f 052b 853f db36 893f
000001a0: 9cb0 823f ffa6 863f cf40 863f c98f 863f
000001b0: d2b9 863f 087d 883f 48ca 863f 14f3 863f
000001c0: 6b62 853f 308f 883f d6e9 843f c88a 873f
000001d0: 4738 893f 6aea 833f d8ce 8b3f 2ec1 853f
000001e0: 5140 853f e0be 843f 196e 843f 5d5f 833f
000001f0: 223b 863f 7a3d 833f 6bc8 893f 785a 873f

main.3.bias f4 [128]
0.01218198 -0.025191523 0.011535915 -0.04181306 0.013491128 -0.02681225 0.022260431 -0.020800423
0.01627344 -0.021020537 0.051635396 0.017504541 0.00072094065 -0.0025713216 -0.018609088 -0.017224716
0.016661191 -0.03868859 -0.023468224 -0.014825941 0.00416253 0.0018444523 0.0145593295 0.063928515
0.019453904 0.0054086633 0.012172762 -0.011652318 0.027943851 0.028641162 -0.0071987966 -0.0048854994
0.04952242 -0.000852118 0.020435922 0.012798307 0.016546916 0.008339267 0.03154429 0.0114004295
0.004506649 -0.0062725493 -0.01084471 -0.012092385 0.0038087515 0.01146151 0.017085677 0.01494219
0.0017528607 0.010744817 -0.0037290393 -0.011188286 0.014656538 0.022642968 0.014904642 0.0023953498
-0.0042099524 0.022240218 0.012331765 0.015668325 0.094150685 -0.0051809577 0.0249343 -0.0017653219
0.019654585 0.054747835 -0.024557719 -0.007830662 0.0026164572 0.020429876 -0.003430651 -0.00029816703
0.02090864 0.034615885 0.020034505 0.015885085 0.026017658 0.010976331 0.028447542 -0.037209604
-0.010997619 -0.006620421 0.002819633 0.015815895 0.0020475953 0.05272093 0.00759142 0.07120831
0.020795992 0.008718068 -0.0014379165 0.003755139 0.0058751632 0.024913471 0.014609254 -0.001738118
-0.048269827 0.014201947 -0.0036702289 0.01710549 0.006431139 0.038183868 0.0295445 0.051119808
0.007176858 -0.009533857 0.013974774 0.03247067 0.011730889 0.009806562 0.02561639 -0.0086361645
0.0077966764 0.002130287 0.018046686 0.03489797 0.07199996 0.017888686 0.075405255 0.002195526
-0.014651723 -0.09374312 0.01650441 0.008461213 0.002239177 0.007315667 -0.0024478228 0.00052160845
00000000: ed96 473c 745e cebc 2201 3d3c 2c44 2bbd
00000010: e409 5d3c 5da5 dbbc 825b b63c a665 aabc
00000020: e14f 853c 4333 acbc a37f 533d af65 8f3c
00000030: 82fd 3c3a 9e83 28bb 1672 98bc d91a 8dbc
00000040: 0d7d 883c ed77 1ebd 6f40 c0bc 81e8 72bc
00000050: d565 883b 8dc1 f13a 418a 6e3c f4ec 823d
00000060: cb5d 9f3c 283b b13b 4470 473c 5de9 3ebc
00000070: 81ea e43c dfa0 ea3c e2e3 ebbb 8a16 a0bb
00000080: 05d8 4a3d ac60 5fba 3c69 a73c feaf 513c
00000090: 668d 873c 6ca1 083c 9634 013d dec8 3a3c
000000a0: 83ac 933b f589 cdbb 03ae 31bc 241f 46bc
000000b0: 3f9c 793b 0fc9 3b3c 43f7 8b3c 16d0 743c
000000c0: 3fc0 e53a 070b 303c e662 74bb 134f 37bc
000000d0: fa21 703c bf7d b93c 9932 743c 4dfb 1c3b
000000e0: a4f3 89bb 1e31 b63c 2c0b 4a3c dc5a 803c
000000f0: 13d2 c03d 06c5 a9bb 0443 cc3c 6062 e7ba
00000100: a702 a13c 443f 603d 452d c9bc 2d4c 00bc
00000110: de78 2b3b 8e5c a73c c6d4 60bb 4d53 9cb9
00000120: 9948 ab3c 63c9 0d3d 671f a43c 7021 823c
00000130: fc22 d53c 12d6 333c d20a e93c 1969 18bd
00000140: 5b2f 34bc 1ef0 d8bb 98c9 383b 5690 813c
00000150: f330 063b e7f1 573d 72c1 f83b aad5 913d
00000160: 5b5c aa3c 3ad6 0e3c 7978 bcba c718 763b
00000170: 7184 c03b 5617 cc3c a75b 6f3c 90d1 e3ba
00000180: 95b6 45bd 48af 683c 3988 70bb d020 8c3c
00000190: 4ebc d23b b066 1c3d 4f07 f23c 0163 513d
000001a0: d92b eb3b e533 1cbc 73f6 643c f7ff 043d
000001b0: ea32 403c b4ab 203c 77d9 d13c b37e 0dbc
000001c0: 437b ff3b 499c 0b3b a5d6 933c 2cf1 0e3d
000001d0: b774 933d 4b8b 923c 126e 9a3d d0e2 0f3b
000001e0: c80d 70bc 65fc bfbd 4234 873c e6a0 0a3c
000001f0: 28bf 123b 43b8 ef3b a76b 20bb 8dbc 083a

main.3.running_mean f4 [128]
-0.0628324 0.2558543 -0.04550774 0.0392554 0.25423118 0.20828141 0.028392818 0.029763741
0.10254615 0.17890841 0.041286997 -0.25205246 0.04471247 -0.051078584 -0.14936912 0.08723936
0.06313565 0.11924561 0.30138576 -0.11441383 0.06054417 -0.3562942 -0.075343356 0.14030947
-0.014154149 0.119261876 -0.029147033 -0.13247572 -0.052318662 -0.25053635 0.03327977 -0.14290164
0.026434643 -0.13060321 0.14618716 0.18173522 -0.039299037 -0.08036823 0.01209813 -0.037982486
0.17486078 -0.11305604 -0.107622944 -8.624928e-05 -0.042772293 -0.06522675 0.03874353 -0.0720403
0.13909468 0.16632006 -0.18347839 0.25734124 0.08725118 -0.11298489 -0.20827758 0.03558035
0.05283615 -0.051768757 -0.1470826 0.025330061 0.06634035 0.16994236 -0.035035457 -0.22870249
0.09578202 -0.06487205 0.21309769 0.14462954 -0.09047796 -0.07428616 0.026075196 -0.114760384
-0.04698541 -0.014572446 -0.01679599 -0.017739106 -0.2769573 0.009580651 0.03147418 0.046532027
0.07196745 0.09530203 -0.20131944 -0.11297529 0.0017792033 -0.026083076 0.018457279 0.037663963
-0.036494583 0.033774193 0.063904986 0.07050774 0.2932764 -0.26056635 -0.11389119 0.0017187753
0.18335755 0.051911097 0.001666982 0.113161415 0.0017964423 -0.012340709 -0.17770141 -0.0016226904
0.03887126 0.052248478 0.08712297 0.005767562 -0.06589922 0.006481817 0.06445373 0.023724616
0.09766924 -0.0720833 0.020637045 0.05386018 -0.013846049 0.12605478 0.028696239 -0.040432267
0.07820486 0.2541638 -0.02573887 0.09025578 0.0017157187 0.2067418 0.27994084 0.04736578
00000000: 46ae 80bd 56ff 823e 5366 3abd 45ca 203d
00000010: 972a 823e b947 553e 0e98 e83c 17d3 f33c
00000020: b703 d23d c433 373e 8e1c 293d 050d 81be
00000030: 6c24 373d c737 51bd 38f4 18be 8daa b23d
00000040: 434d 813d 0b37 f43d 3c4f 9a3e cc51 eabd
00000050: 2afd 773d 326c b6be 9e4d 9abd 49ad 0f3e
00000060: cee6 67bc 923f f43d c2c5 eebc b7a7 07be
00000070: 184c 56bd 4d46 80be 5e50 083d cf54 12be
00000080: 778d d83c d9bc 05be 16b2 153e cc18 3a3e
00000090: 07f8 20bd 1998 a4bd 3c37 463c 8693 1bbd
000000a0: b40e 333e ed89 e7bd 6b69 dcbd bbe0 b4b8
000000b0: 0032 2fbd 9a95 85bd 89b1 1e3d dd89 93bd
000000c0: d66e 0e3e ce4f 2a3e c2e1 3bbe 3bc2 833e
000000d0: bfb0 b23d 9f64 e7bd b846 55be b3bc 113d
000000e0: b86a 583d 7a0b 54bd d29c 16be fd80 cf3c
000000f0: 73dd 873d 5f05 2e3e 5781 0fbd fc30 6abe
00000100: 5d29 c43d a3db 84bd 4836 5a3e c419 143e
00000110: 824c b9bd 5823 98bd a69b d53c 7e07 ebbd
00000120: c673 40bd 45c1 6ebc be97 89bc 9a51 91bc
00000130: 59cd 8dbe 2af8 1c3c 12eb 003d 5e98 3e3d
00000140: ac63 933d b62d c33d af26 4ebe 975f e7bd
00000150: 2834 e93a 2dac d5bc b833 973c 8745 1a3d
00000160: 587b 15bd cf56 0a3d 9ee0 823d 5d66 903d
00000170: 5328 963e f468 85be c93f e9bd 8748 e13a
00000180: 15c2 3b3e bba0 543d a27e da3a 2cc1 e73d
00000190: 9a76 eb3a af30 4abc 5cf7 35be 74b0 d4ba
000001a0: 7837 1f3d 8002 563d 876d b23d d1fd bc3b
000001b0: 2cf6 86bd 6c65 d43b 5100 843d 205a c23c
000001c0: cf06 c83d 69a0 93bd 050f a93c 7e9c 5c3d
000001d0: 8ada 62bc 8114 013e 6014 eb3c 4e9c 25bd
000001e0: df29 a03d c221 823e 53da d2bc 06d8 b83d
000001f0: f7e1 e03a 1fb4 533e 6854 8f3e 9f02 423d

main.3.running_var f4 [128]
0.01445183 0.01391857 0.015566789 0.011420017 0.02247988 0.008748323 0.004548214 0.01735946
0.012006388 0.011556289 0.008291344 0.017069094 0.013246384 0.013467902 0.02634854 0.014237571
0.014279324 0.018624825 0.017811546 0.025614507 0.010906556 0.027738066 0.006706474 0.013774388
0.026352044 0.0080635445 0.013573916 0.0066100094 0.017235698 0.014584149 0.012677216 0.009246266
0.01151333 0.015747566 0.022581702 0.01429492 0.012795076 0.021719657 0.008400382 0.025828218
0.011831249 0.011687191 0.011633587 0.008668856 0.014043319 0.007818495 0.008622789 0.012618303
0.017043931 0.019598387 0.02899083 0.01917706 0.013111981 0.017291749 0.019500053 0.02306417
0.006630442 0.013409507 0.011137728 0.023687325 0.015113984 0.018068053 0.0121918805 0.016059587
0.008757866 0.019523297 0.017023323 0.013960171 0.011588651 0.022154504 0.020049538 0.022729235
0.007833987 0.0045203525 0.007901036 0.00893528 0.018526211 0.00921006 0.0042437883 0.006349447
0.019153805 0.016918872 0.016463442 0.016800549 0.005517935 0.008164636 0.007306044 0.00832086
0.008533551 0.031727247 0.0146063855 0.0067714723 0.022481697 0.012786482 0.006698349 0.007986919
0.014672777 0.0048097405 0.008220922 0.013600141 0.01820849 0.009491677 0.012839479 0.003120304
0.02462662 0.010133576 0.019020187 0.012485865 0.0077935588 0.009242526 0.01811496 0.014741187
0.009882891 0.014289641 0.007016907 0.007641132 0.014723714 0.014918355 0.006378016 0.010022044
0.011919314 0.015243367 0.010597167 0.013341878 0.004794868 0.016600149 0.013988358 0.008375579
00000000: 5ec7 6c3c b70a 643c d80b 7f3c 061b 3b3c
00000010: ba27 b83c 2055 0f3c 2f09 953b 6d35 8e3c
00000020: 71b6 443c 9756 3d3c 6bd8 073c 7cd4 8b3c
00000030: 5d07 593c 7aa8 5c3c e5d8 d73c b344 693c
00000040: d3f3 693c 1793 983c 85e9 913c 84d5 d13c
00000050: 69b1 323c f13a e33c fbc1 db3b f8ad 613c
00000060: 3ee0 d73c f51c 043c 2165 5e3c c798 d83b
00000070: e131 8d3c 5bf2 6e3c 19b4 4f3c a77d 173c
00000080: 68a2 3c3c 0a01 813c 43fd b83c 3d35 6a3c
00000090: 70a2 513c 6ced b13c c1a1 093c b395 d33c
000000a0: dbd7 413c a27b 3f3c cd9a 3e3c d107 0e3c
000000b0: f315 663c 2519 003c 9946 0d3c 00bd 4e3c
000000c0: b79f 8b3c cc8c a03c 2d7e ed3c 3619 9d3c
000000d0: a2d3 563c 6da7 8d3c 93be 9f3c 12f1 bc3c
000000e0: 2e44 d93b 8db3 5b3c 047b 363c ec0b c23c
000000f0: a5a0 773c 7403 943c 74c0 473c 658f 833c
00000100: 277d 0f3c 52ef 9f3c 7f74 8b3c 33b9 643c
00000110: 53de 3d3c 5d7d b53c ee3e a43c a932 ba3c
00000120: 1f5a 003c 771f 943b 5973 013c 4865 123c
00000130: 48c4 973c cbe5 163c 7a0f 8b3b 060f d03b
00000140: 71e8 9c3c 7299 8a3c 57de 863c 4ea1 893c
00000150: cbcf b43b f7c4 053c 8a67 ef3b 3754 083c
00000160: 4fd0 0b3c 6ef4 013d 9f4f 6f3c 3ae3 dd3b
00000170: 892b b83c 657e 513c d37d db3b 91db 023c
00000180: 1666 703c 079b 9d3b 0cb1 063c 20d3 5e3c
00000190: f929 953c fb82 1b3c ae5c 523c 047e 4c3b
000001a0: c4bd c93c 4c07 263c 39d0 9b3c 8391 4c3c
000001b0: 1c61 ff3b f76d 173c d365 943c 0585 713c
000001c0: d9eb 213c 191f 6a3c 15ee e53b 7662 fa3b
000001d0: bc3b 713c 1e6c 743c adfe d03b 8033 243c
000001e0: 3a49 433c 51bf 793c bd9f 2d3c e497 5a3c
000001f0: 451e 9d3b 09fd 873c 6d2f 653c b939 093c

main.5.weight f4 [1, 128, 7, 7]
-0.057935927 -0.027037641 -0.040542163 -0.040895306 -0.025268998 -0.037047353 -0.014849516 -0.04087454
0.03226827 0.011707138 0.036037393 0.05007722 0.023403008 0.015700154 -0.03665033 0.04317978
0.021569032 0.0064984756 0.02685223 0.008250065 -0.0013156636 -0.02601901 0.015339153 -0.01522155
0.027197361 0.08245648 0.049876153 0.03343289 -0.03795231 0.014022616 0.037100315 0.016168088
0.06148077 0.025010739 0.03567911 -0.046959177 0.028451608 0.028145906 0.032683935 0.037315287
-0.0036215275 0.04604031 -0.03374352 -0.0022931243 -0.0048312685 -0.01736472 -0.023993269 0.010854958
-0.0008947085 -0.01866523 -0.043718223 -0.045990705 -0.048703752 0.003306656 0.029164664 -0.0053205513
-0.001196004 0.005260368 0.009267884 -0.00047023356 -0.0027351247 0.011678356 -0.010335394 -0.0022504411
0.017134301 0.016998542 -0.013361187 -0.013297125 -0.026308548 -0.011904928 -0.02914454 0.017648451
0.005667335 0.01527876 -0.0005148185 -0.025714187 -0.03366037 -0.044501152 0.013531618 0.019995548
0.030062249 -0.0052304026 -0.024976341 -0.011046973 -0.036218107 0.008235064 0.0047388216 -0.020668814
-0.041129064 -0.054458156 -0.019480282 0.0011276155 0.016590735 0.024302362 -0.016082913 0.010802137
0.01631304 0.0017170336 0.030639669 0.0106414175 -0.006013473 0.021089157 0.0056837564 0.013018604
0.029947463 0.022196911 -0.031487424 0.0398131 0.015555855 0.04472665 0.0074060173 0.015030023
0.0083417455 -0.07058597 0.041078266 0.021242192 0.049081966 -0.0021197912 -0.009145324 0.020598624
-0.017858151 0.025611723 0.02670023 0.027399454 -0.012646457 -0.0018421271 0.01903181 -0.06094086
0.012991057 0.034172278 0.0010312641 -0.016606545 0.0113016125 0.016797673 -0.04725222 0.0019656175
0.038263693 0.018222163 -0.044133086 -0.0054900176 0.02750967 -0.009926591 0.013636899 0.037717085
0.03133708 -0.0041525466 -0.0008859403 -0.0009944356 0.0052896673 0.0073880753 0.0032381194 0.023085024
0.005687961 -0.021726394 -0.006673093 -0.0054682456 -0.0047292933 -0.0062069665 -0.0063330657 0.012895675
-0.024466027 -0.0004336276 0.05861812 -0.014130475 -0.030689146 -0.04116188 0.014647893 -0.023262458
0.004828624 0.05163239 -0.013069764 -0.03282467 -0.032960966 -0.008940052 -0.014443085 -0.0030541418
0.06638766 0.033607002 -0.00921974 -0.013078804 0.02810458 -0.017272284 0.012955009 0.107388444
0.033752184 0.0033476618 0.024011092 0.0448048 -0.019532343 0.011468844 0.03410694 -0.0046964255
-0.005396424 0.07461077 -0.0028717457 -0.018512143 -0.013772032 0.0024910143 -0.008845818 0.020326503
-0.0006545588 0.004083524 -0.00077035883 0.02409018 -0.005137581 -0.048509374 -0.03438265 -0.0010173183
0.0007389901 0.015571685 0.013490655 -0.017872237 -0.040162433 0.0071212924 -0.0041284044 -0.03161351
0.01193942 0.021910835 -0.021580998 -0.009509295 0.013082339 -0.028704172 0.002225818 0.00591511
0.0010625711 -0.0060386583 0.04109072 0.018456284 -0.021477126 -0.020308241 0.009020449 0.01797673
-0.022580931 0.09936968 0.10185408 0.040954683 0.033864044 -0.0038261688 0.009473712 -0.0021791703
0.0109972535 0.030272996 0.02381709 0.015957855 0.016911985 -0.00978962 -0.005091028 -0.05421763
-0.038589578 0.0026272577 0.014115196 -0.009836269 0.027172161 0.013213261 0.007293284 -0.009038432
00000000: 394e 6dbd 0b7e ddbc 8a0f 26bd d681 27bd
00000010: ee00 cfbc f7be 17bd 624b 73bc 106c 27bd
00000020: bc2b 043d 4ccf 3f3c f29b 133d c51d 4d3d
00000030: aab7 bf3c 9c9d 803c a81e 16bd 48dd 303d
00000040: 8ab1 b03c 2af1 d43b 35f9 db3c 482b 073c
00000050: 5872 acba d225 d5bc 1251 7b3c cf63 79bc
00000060: 00cd de3c f1de a83d f04a 4c3d edf0 083d
00000070: e273 1bbd 1dbf 653c 80f6 173d f072 843c
00000080: 43d3 7b3d 52e3 cc3c 4224 123d 4458 40bd
00000090: 5913 e93c 3e92 e63c 97df 053d ead7 183d
000000a0: 2657 6dbb c494 3c3d a536 0abd 3e48 16bb
000000b0: 9e4f 9ebb 7540 8ebc 888d c4bc fed8 313c
000000c0: df8a 6aba d3e7 98bc e111 33bd c060 3cbd
000000d0: 967d 47bd 7bb4 583b bcea ee3c 0558 aebb
000000e0: 3cc3 9cba 2a5f ac3b 53d8 173c ae89 f6b9
000000f0: c73f 33bb 9356 3f3c c955 29bc 237c 13bb
00000100: 3c5d 8c3c 8740 8b3c e1e8 5abc 2fdc 59bc
00000110: 0685 d7bc e30c 43bc 88c0 eebc 7c93 903c
00000120: 0db5 b93b c453 7a3c e2f4 06ba 8fa6 d2bc
00000130: 75df 09bd d746 36bd b8b3 5d3c b4cd a33c
00000140: 1b45 f63c cc63 abbb 2f9b ccbc 5dfe 34bc
00000150: 7059 14bd 5dec 063c 1e48 9b3b a551 a9bc
00000160: f376 28bd 840f 5fbd 1d95 9fbc 7fcc 933a
00000170: 4be9 873c bf15 c73c 50c0 83bc 72fb 303c
00000180: eda2 853c 160e e13a 0b00 fb3c 5759 2e3c
00000190: ab0c c5bb 2bc3 ac3c ce3e ba3b fc4b 553c
000001a0: 6254 f53c 4cd6 b53c f5f8 00bd 1013 233d
000001b0: fcdd 7e3c 4b33 373d 2dae f23b 7c40 763c
000001c0: d1ab 083c 618f 90bd af41 283d 1b04 ae3c
000001d0: 2c0a 493d 32ec 0abb 45d6 15bc 72be a83c
000001e0: 424b 92bc adcf d13c 71ba da3c d274 e03c
000001f0: 1633 4fbc 8773 f1ba 99e8 9b3c 209d 79bd
00000200: 71d8 543c 3bf8 0b3d 7b2b 873a 730a 88bc
00000210: 662a 393c 469b 893c 8b8b 41bd 97d1 003b
00000220: 64ba 1c3d a546 953c e5c4 34bd 9be5 b3bb
00000230: f65b e13c 24a3 22bc 4d6d 5f3c 3b7d 1a3d
00000240: 4f5b 003d 1612 88bb 723e 68ba b957 82ba
00000250: f254 ad3b ab17 f23b a136 543b ce1c bd3c
00000260: 1362 ba3b 8dfb b1bc f6a9 dabb f82e b3bb
00000270: 30f8 9abb cf63 cbbb 9b85 cfbb 6248 533c
00000280: fa6c c8bc 8358 e3b9 8e19 703d 8283 67bc
00000290: ce67 fbbc 5c99 28bd b7fd 6f3c e990 bebc
000002a0: 6f39 9e3b 7c7c 533d 9022 56bc 2973 06bd
000002b0: 1402 07bd 4c79 12bc b0a2 6cbc ff27 48bb
000002c0: 41f6 873d 7fa7 093d 640e 17bc 7b48 56bc
000002d0: 933b e63c 9b7e 8dbc 3f41 543c 79ee db3d
000002e0: bb3f 0a3d 7264 5b3b e9b2 c43c 3d85 373d
000002f0: 4b02 a0bc d1e7 3b3c b8b3 0b3d 79e4 99bb
00000300: 7cd4 b0bb 88cd 983d e633 3cbb c7a6 97bc
00000310: 17a4 61bc 4940 233b 0dee 10bc c483 a63c
00000320: b396 2bba 15cf 853b e8f1 49ba c558 c53c
00000330: 2759 a8bb c4b1 46bd d2d4 0cbd 8a57 85ba
00000340: c9b8 413a 6120 7f3c e907 5d3c cc68 92bc
00000350: 5d81 24bd bb59 e93b 9147 87bb 2b7d 01bd
00000360: 8f9d 433c 5a7e b33c a2ca b0bc e0cc 1bbc
00000370: 4f57 563c 0325 ebbc 08df 113b 8ad3 c13b
00000380: f845 8b3a f0df c5bb be4e 283d a231 973c
00000390: ccf0 afbc 785d a6bc 81ca 133c ef43 933c
000003a0: a5fb b8bc 5582 cb3d df98 d03d 19c0 273d
000003b0: 06b5 0a3d 76c0 7abb a137 1b3c 69d0 0ebb
000003c0: d32d 343c 13ff f73c 0f1c c33c 0cba 823c
000003d0: 018b 8a3c a464 20bc a3d2 a6bb 4e13 5ebd
000003e0: 1b10 1ebd 122e 2c3b 6c43 673c 4d28 21bc
000003f0: 2798 de3c 6f7c 583c 80fc ee3b ee15 14bc
