w3/cifar_net_densenet.pth (torch, 777739 bytes, 62 tensors)

conv1.weight f4 [64, 3, 3, 3]
00000000: 6ae4 283d c7e6 f23d 7259 1f3e c475 31be
00000010: a565 2e3e 7f37 26be 7f98 993d 4f1c 88bd
00000020: 3d00 643c 28ed cb3d 44bb ff3d e8d2 493d
00000030: 3777 5c3d d01d 15be 30d7 413e fea1 2bbd
00000040: 889c 01be 5303 d8bd 6f0c 943d e41c f3bb
00000050: f6bc 6e3c 845a 86bd 3e78 213e f470 ee3d
00000060: a187 1ebe 8967 f4bc 6f9c 09be 8f62 02be
00000070: 8f97 3a3c 1801 2f3c 6796 9bbc 266a c13d
00000080: 8915 ecbd 9695 fcbd 3696 4e3d 9f89 203e
00000090: 3d0a d43c e3ea 593d a38e ed3d 6669 e13d
000000a0: b680 3a3d a5d4 53bd 7b0d 5bbe d769 953d
000000b0: 4ad6 7ebd 092a b33c b1b5 0b3e ebb7 eabd
000000c0: aa96 96bc 3ffd 0bbd b307 83bd 0729 1c3e
000000d0: e020 9c3d 9c7f a3bc 63a9 913c 915f 4fbd
000000e0: e23e 9f3c 51c4 063e 5b3d 403e 23e8 26be
000000f0: de76 80bd c227 2fbd 3427 953d 41e2 e5bc
00000100: 7534 dd3b 1e8b 7e3d 2e95 f33d 2a9e 243e
00000110: 56ef ccbc 4b90 5fbe e3bc dbbd 5653 00bd
00000120: 8797 5f3d ee77 903d e442 103e b6ee a7bd
00000130: 703c 373e 4132 f43d 66b9 91bd f306 cabd
00000140: 6de4 49be ee03 e0bd 3d32 20bd 178c 08be
00000150: 4bf8 f53d 8c68 54be 90e1 2cbe 458c 633e
00000160: edd2 913d b716 783e e53a b33b d710 953e
00000170: a662 633e 26c1 f8bd b8c9 1cbe 22a6 c2bd
00000180: a2e0 8fbe 921f d83d 9f9c 23bd 4b5b 163d
00000190: 7649 70bc 4af5 36be 560c 0ebe e97f 883d
000001a0: 7f32 31be c2d4 333e d4d5 503e 6ede 8e3b
000001b0: 5e44 3c3e 1c59 1d3e 6637 653d 7985 ccbd
000001c0: b31b 50be 34e0 d73d 21f5 fc3d d4ac 163d
000001d0: be93 2dbd 5ecc 44bd c516 51be 2ef7 913d
000001e0: b47f 49be bfa7 1abe 55bd 453e a0ee 883d
000001f0: dc46 1fbe 93d1 0bbe 3ca1 393e 649d b3bd
00000200: d27c 463e 7ca0 00be 263c 2dbe 43ca bf3c
00000210: 6302 103e 48a7 92bd e230 c6bd 53ac 66be
00000220: 109d 043e bdab cbbd fd8b 59be 50d1 1dbe
00000230: 17b3 8cbd d2d5 543e f099 9d3e 9967 753d
00000240: c928 773e f866 543e 6e13 803d c17d fcbd
00000250: 2692 e43d cfec 75be f29c d0bc d8a3 6c3d
00000260: 0ac6 99bd 5d38 2e3e b7cc 8e3e 082e 75bd
00000270: 1767 bebd 0da1 33bd 86aa fabc 495e 7dbe
00000280: 1c1c f7bd 8427 b53d ac7a 5fbd 3358 b43d
00000290: 2f30 27be 20a2 c3bd a787 e0bd 393b 583d
000002a0: 9782 353e 0bd7 86bc 2929 3a3e 8629 733d
000002b0: f62b 66bd ee90 a33d c6ea 8ebe 57e0 54bd
000002c0: 76ff 50bd e5f3 183d 3ae4 45bd e258 613e
000002d0: 0543 97bd db60 2cbe 99db ffbd 9f68 2abe
000002e0: bbb9 04be ed58 e33d 4586 8c3d e690 4e3e
000002f0: eb14 613e 1e1e 1b3e ca90 b6bd afd9 8bbd
00000300: d6b2 f43d 765e 163e 52e9 02be 1942 4fbe
00000310: e6c6 debd 28a0 223e 9295 5d3e 5a18 1d3b
00000320: 2374 553e a285 d33d f65f 10be 25ef 8dbd
00000330: ac91 1b3e 510a dcbd 4e01 66bd 269e b23d
00000340: ba77 e4bc 870e 8f3d 5a5a 5abe 3253 3abe
00000350: a73b 32be 4e27 32be 3d8a b93c dd99 8a3e
00000360: 8ec6 d5bd e94e 9cbd 1295 483e 8b00 85be
00000370: 9e5f 0cbd f21f 04be e67e 2ebe e885 d83c
00000380: 6c4e 6abd defe e6bc 7145 1b3d a184 d13d
00000390: 5705 583d b6a3 333e c0ee 30be fb26 8f3a
000003a0: 8423 7e3d a256 d23d a1a7 0a3e bcf6 0b3e
000003b0: d9e6 01be 7143 34be 15bd 403d 5138 5ebe
000003c0: 33d0 ca3d 9063 383e ff62 173e fc14 f23d
000003d0: e4a5 93be e58e 233d 4582 463e deb5 d4be
000003e0: 0828 da3d 29fd 423e dd6a 78be dcb1 6f3e
000003f0: dcff 153e 4f2b 23bd 756c aa3d 381c 813d
0.041233458 0.118604235 0.15561464 -0.1733008 0.17030962 -0.16232108 0.074997894 -0.066460244
0.013916072 0.09957343 0.1248689 0.0492734 0.05382463 -0.14562154 0.18929744 -0.041902535
-0.12657368 -0.10547509 0.07228934 -0.0074192155 0.014571419 -0.06560233 0.15768525 0.11642638
-0.15481426 -0.029834526 -0.13438581 -0.1273291 0.011388673 0.010681413 -0.018992616 0.09444074
-0.11527545 -0.12333219 0.05043622 0.15677498 0.025883788 0.05320252 0.115994714 0.11006431
0.045532905 -0.051716466 -0.21391861 0.07295578 -0.06221608 0.02187063 0.13643529 -0.11460861
-0.01838239 -0.03417706 -0.06397953 0.15250026 0.07623458 -0.01995831 0.017780965 -0.05062825
0.019439165 0.13160826 0.18773405 -0.1629949 -0.06272672 -0.042762525 0.07282868 -0.028061988
0.006750638 0.06214439 0.11893688 0.1607596 -0.025016468 -0.21832387 -0.10729387 -0.031329475
0.054587867 0.07054125 0.14088017 -0.081998274 0.17894149 0.11923648 -0.0711544 -0.09864607
-0.19716044 -0.109382495 -0.03911041 -0.1333469 0.12010249 -0.20743006 -0.1688292 0.22221477
0.07120309 0.24227415 0.0054696673 0.2911441 0.222056 -0.12146215 -0.15311325 -0.095043436
-0.2810107 0.105528966 -0.039944287 0.036708158 -0.014665952 -0.17867008 -0.13871893 0.06665022
-0.17304419 0.1756163 0.20394069 0.004360012 0.18385455 0.15366024 0.055961035 -0.099863954
-0.20323066 0.1054081 0.12351442 0.036785915 -0.042377226 -0.048046462 -0.20418842 0.07127224
-0.19677621 -0.15103053 0.19310506 0.06686139 -0.15554374 -0.13654165 0.18127912 -0.08770254
0.19383553 -0.1256122 -0.16917476 0.023411876 0.1406341 -0.071608126 -0.096772924 -0.22526674
0.1295054 -0.09944866 -0.21244808 -0.15411878 -0.06870096 0.20784691 0.30781507 0.05991325
0.24136652 0.20742404 0.06253706 -0.12328673 0.11160688 -0.24016117 -0.025465462 0.05777344
-0.07508476 0.17013688 0.2789056 -0.059858352 -0.092970066 -0.043854762 -0.03059889 -0.24742998
-0.12065908 0.08845428 -0.05456035 0.08805885 -0.16326974 -0.09552407 -0.10963374 0.052790854
0.17725597 -0.016459962 0.18179764 0.05936577 -0.05619427 0.079866275 -0.27913493 -0.05197176
-0.051024877 0.03734197 -0.048313357 0.22006562 -0.0738583 -0.16833822 -0.12493057 -0.16641472
-0.12961476 0.111009456 0.068615474 0.20172462 0.21980636 0.15148208 -0.08914335 -0.06828629
0.11948173 0.14684471 -0.12784317 -0.20240058 -0.108777806 0.15881407 0.21639088 0.0023970813
0.20845084 0.10328223 -0.14099106 -0.06930379 0.15192288 -0.10744155 -0.056153588 0.08721571
-0.027889121 0.06985193 -0.21323529 -0.18195799 -0.17405568 -0.17397806 0.022648925 0.27070513
-0.10438262 -0.076322384 0.19588116 -0.25976977 -0.034270875 -0.12902811 -0.17040595 0.026431039
-0.057203695 -0.028197702 0.03790802 0.10230375 0.052739467 0.1754292 -0.17278576 0.0010921651
0.06204559 0.1027043 0.13540508 0.1366834 -0.12685718 -0.17603852 0.047055323 -0.2170117
0.09902992 0.1800673 0.14783858 0.11820409 -0.28837502 0.039931197 0.19385631 -0.41545004
0.106521666 0.19041885 -0.24259515 0.23407692 0.14648384 -0.039836224 0.08321468 0.063042104

dense1.0.bn1.weight f4 [64]
00000000: 0c72 733f 4c6c 793f e091 7c3f a56b 7d3f
00000010: b210 763f 9769 873f 08b5 823f f92f 833f
00000020: b1f7 723f 528c 903f 719d 813f 3703 803f
00000030: 27a0 853f f7b5 863f bec6 7d3f 9fed 8a3f
00000040: 5f85 8b3f 9d86 7c3f 6934 713f af73 833f
00000050: a627 893f a468 753f c552 863f 7711 773f
00000060: e2ff 6f3f 1d90 7b3f 18aa 7c3f 52d8 7b3f
00000070: eb1c 833f 8627 7f3f 4f28 6a3f 1777 7a3f
00000080: 591f 7e3f 11a0 783f 7ceb 7c3f 527c 823f
00000090: 22fd 773f 39f3 723f d0cb 7e3f d497 803f
000000a0: 9360 8d3f e9cd 713f 5d67 823f a06c 763f
000000b0: 2864 743f b260 853f 6cd5 753f 94dc 813f
000000c0: cc44 733f d5f3 7b3f b675 8d3f 3283 803f
000000d0: b159 733f c3ab 7c3f de3a 7c3f 8309 813f
000000e0: 1a7a 7a3f 6fe0 713f 5d85 7a3f 6656 6c3f
000000f0: 6d6b 7a3f ca33 823f b170 6b3f 2a32 8d3f
0.95095897 0.9743087 0.9866009 0.9899238 0.96119225 1.0579098 1.0211496 1.0249015
0.949092 1.1292822 1.0126172 1.0000981 1.04395 1.0524281 0.9913138 1.0853766
1.0900077 0.98642904 0.94220597 1.0269679 1.0715225 0.95862794 1.0494009 0.96511024
0.9374982 0.98266774 0.9869704 0.98376954 1.02432 0.9966968 0.91467756 0.97837967
0.9926658 0.9711924 0.9879682 1.019419 0.96870625 0.9490238 0.99529743 1.0046334
1.1045097 0.9445482 1.0187794 0.962595 0.95465326 1.0420134 0.9602878 1.014544
0.9502685 0.98418933 1.1051548 1.0040038 0.95058733 0.9869959 0.98527324 1.0081028
0.9784256 0.94483083 0.97859746 0.92319334 0.9782017 1.0172055 0.9196883 1.1030934

dense1.0.bn1.bias f4 [64]
00000000: bb6c 31bd df62 88bc 3374 19bb 2e1d 8f3c
00000010: 46c8 16bc eb8e e33d 6e14 8d3d c1ca 923c
00000020: ecae ceba 6740 d93d 54e0 163d b391 b23c
00000030: dc8b 5d3d 5150 9a3d a496 07bc 9595 353e
00000040: 6192 113e bb97 c3bc b71e 1ebd 1976 1d3d
00000050: ef9f 143d 0cd1 39bd 2bc0 c13d 8aad f9bc
00000060: c041 2fbd aebb c13a a46f 543c 990f bfba
00000070: b92d a03d 6736 ae3d c05d 45bc 9c82 02bd
00000080: 9b4a 1b3d 94c0 81bb c588 ff3c f6f2 173d
00000090: c229 88bc 4a1f 3bbd fda0 61bc 4d4c 883d
000000a0: 3302 183e cd7a 7bbd 297c f53c 01d2 bf3b
000000b0: 4974 4fbc 0feb 3a3d e44c e4bc 9a40 15bd
000000c0: ac9f 223b d964 38bc 1fdf 153e ac7c 2f3d
000000d0: bca2 38bd 1eee db3c e470 0ebc 52b2 473d
000000e0: ab1a 80bc edc0 54bd 54d9 99bc 4a12 68bd
000000f0: 6aa1 e4bc f2cf 883d 8ac8 1ebd 8748 923d
-0.043316584 -0.016648708 -0.0023415207 0.017469969 -0.009203022 0.11111244 0.06888662 0.017918946
-0.0015768684 0.10607987 0.03683503 0.02179799 0.05408846 0.075348504 -0.008275662 0.17732842
0.14215995 -0.023876062 -0.03860351 0.038442705 0.036285337 -0.04536538 0.09460481 -0.030478258
-0.042787313 0.0014780664 0.01296607 -0.0014576792 0.07821221 0.0850647 -0.0120462775 -0.03186284
0.037912946 -0.0039597247 0.031193146 0.03709694 -0.016621474 -0.045684136 -0.013771293 0.06655178
0.14844589 -0.06139641 0.02996643 0.005853892 -0.012662002 0.045634326 -0.027868696 -0.036438562
0.002481441 -0.011254513 0.14635895 0.042843506 -0.04507707 0.026846942 -0.008693907 0.048754044
-0.015637716 -0.0519418 -0.018780388 -0.056658067 -0.027909 0.066802874 -0.038765468 0.0714274

dense1.0.bn1.running_mean f4 [64]
00000000: 6442 27ba 53e8 9abc 1b62 1fbc 6a61 2c3b
00000010: aed0 ab3c 4111 2ebb d0e7 003c 6215 cd3c
00000020: 8e97 09bd 1eca ddbb 7b90 0e3c 2981 bf3b
00000030: 3725 9cbb 6ecc b63b e226 0abd a8e3 813b
00000040: 257d 07bb 1b1e c0bc 5cc6 25bd 39a3 82b9
00000050: 5df2 e5ba 4b63 32bd 1f38 7c3b 541c 96bb
00000060: 987f 7f3d 1a96 883c d1b3 b0bb 9c36 1ebc
00000070: 11f2 d7bb 86c6 63bc d9e8 953c 4905 b53c
00000080: 631b 5c3c 25d7 23bd 6129 5f3c 7e51 3ebc
00000090: de4a 56bd 6e21 60bc 3c43 1e39 9d28 f5bb
000000a0: 8658 edbb febb 283d 717d de39 bd4f 883c
000000b0: f0e7 8039 aeaf 243c 0681 45bd af8c eeba
000000c0: 1618 9cbc 35e9 7e3c 4a15 653b b932 fd3b
000000d0: c1d3 09bd 61b6 603c b9d3 99bc 9280 5b3c
000000e0: e619 eabc dcfb 38bd c223 d6ba f3b0 603d
000000f0: 563d e8bc 6883 463b 185d a0bd 7157 5bbb
-0.00063804374 -0.018909609 -0.00972798 0.002630318 0.02097353 -0.0026560577 0.007867768 0.02503461
-0.0335918 -0.006768479 0.008701439 0.0058442545 -0.0047651785 0.005578569 -0.033728488 0.0039639063
-0.0020673957 -0.023451855 -0.040472373 -0.00024917143 -0.0017543543 -0.043551724 0.00384856 -0.0045810137
0.062377542 0.016673137 -0.0053925295 -0.009656575 -0.006590136 -0.013902312 0.018299507 0.022097247
0.013434264 -0.0400001 0.013620705 -0.011616109 -0.052317493 -0.013679845 0.00015093101 -0.007481648
-0.007243219 0.04119491 0.000424366 0.016639585 0.0002458687 0.010051651 -0.04821875 -0.0018199886
-0.019054454 0.015558531 0.0034955316 0.007726994 -0.03364921 0.0137153575 -0.018777715 0.013397353
-0.028576802 -0.045162067 -0.0016337561 0.054856252 -0.02834956 0.0030290727 -0.07830256 -0.0033468867

dense1.0.bn1.running_var f4 [64]
00000000: 1ff5 3f3d e9e4 523c d22a 263d 62df c73c
00000010: 28e1 523d c092 fa3c dcbb 973d cba9 df3c
00000020: b5e9 003d f9fc 553d ee77 463d 9adf 843c
00000030: 3064 293d 49db b43d e23d 6d3d 9b7c 013d
00000040: 3d39 f03c c514 993d 8847 933e 4b03 833d
00000050: 6408 123d 95a0 ad3d 1ab3 c13c 1dfd 4e3d
00000060: 2add 533e 44a9 823d e28b b63c 6b16 093d
00000070: 0c10 9f3c 47f3 f73c 7fda 803d b99a fd3c
00000080: 92b9 4a3d 4c63 1c3d 4e65 443d ad3d 973c
00000090: 645e 863d 5aa2 733d 2984 063d 0042 033d
000000a0: 5060 5d3c ace9 093e 4559 9e3d f88d 323d
000000b0: 863e 803d 3616 c73c cfd0 2f3d 1852 9a3d
000000c0: afe7 a13c 13a8 8a3d c3d5 9e3c 7122 b13d
000000d0: 24b1 4a3e 39a8 e23c c549 f43c 2826 723d
000000e0: ba5b e73c 245b 153d 7414 f83c a109 3a3e
000000f0: b8e4 ab3c d775 c33d e974 e73e e7a7 b43c
0.046864625 0.012871959 0.04056818 0.02439851 0.051484257 0.030587554 0.07408878 0.027302643
0.03147288 0.052243207 0.048454218 0.016219903 0.041355312 0.08830888 0.057920344 0.031612974
0.029324168 0.074746646 0.28765512 0.063971125 0.035652533 0.08477894 0.023644973 0.050534356
0.20689836 0.06379941 0.022283498 0.033468645 0.019416831 0.03026737 0.06291675 0.030957567
0.04949338 0.038180634 0.047948174 0.018462026 0.06560972 0.059481002 0.03284088 0.032045364
0.013511732 0.13468045 0.077318706 0.043592423 0.062619254 0.024302583 0.042923745 0.075351894
0.019763796 0.06770339 0.019389039 0.08649147 0.19794136 0.027668105 0.029820332 0.05911842
0.02824198 0.03646387 0.03028319 0.18167736 0.020983085 0.095439605 0.45206383 0.022052718

dense1.0.conv1.weight f4 [128, 64, 1, 1]
00000000: 319a 5a3d 78c0 373d dffd 973d 1f8c 923c
00000010: f218 dbbd e981 80bd baeb 9a3d d30b 323d
00000020: ab6a 323c d0fd e3bd 1123 b63d 70aa d43d
00000030: 2d4e e9bd 20e5 70ba 223d 2d3c a5d1 9c3b
00000040: 36eb 913d 8d47 c8bd e65f fb3d 6102 d4bc
00000050: 1f31 83bd fc2e 563d 6c95 e5bd 1f59 093d
00000060: 1721 803d f611 98bd 6c1c cdbd abc8 c33c
00000070: b47b 8ebc d81d 7dbd 6e3c f2bd 098b 063d
00000080: c89b 873d 66ad 5f3d bfea f7bb 2ce1 a3bd
00000090: 3baf cf3d 87d8 78bb b314 96bd 4cfd 9c3c
000000a0: 39c1 01be 9f12 303d 5f5e 08be 7308 d3bb
000000b0: 90aa af3d c7c4 aabd 3b32 59bd 5973 a7bb
000000c0: ef79 dfbd f897 88bd 0452 81bd c016 ffbc
000000d0: b297 6abd 7522 023c a4ad d0bc c329 0dbd
000000e0: e2ef d5bd 3097 833d de29 fb3d def3 f2ba
000000f0: b298 833c 38bc 36bd 74e3 80bd a798 05bd
00000100: d0c5 313d 194b 993d 3b39 4bbd f1f6 6f3d
00000110: 6e70 d1bd 96fc c53d df15 b83d 1de8 cb3c
00000120: d06f 973d 4ef3 12be 6a67 efbd 69cf 9b3c
00000130: 406d a8bd b0a6 463c 8b2e a3bc 291a 82bd
00000140: 0600 ac3d 75d2 a23b 7a28 ed3c 960d 693d
00000150: 6529 b33c dc42 973d bb9b c23d b596 5ebd
00000160: 9ab5 e33d d089 e03d 2e81 00be 06ca a03d
00000170: 923b b0bd f867 afbd 5e40 e33c 863e b2bd
00000180: b161 a3bd 116f 07be ea58 70bd 273e ddbd
00000190: 73ed 9a3d f7f8 cdbd 883b 9b3d bcec 78bd
000001a0: e3a7 a1bd e3ec ebbd 3c06 aabd 6853 f4bd
000001b0: a6ec be3d 1384 3d3d 78e9 ce3c a1ee 78bc
000001c0: f4e3 febd 50e8 f43c 80e9 573d cef6 94bc
000001d0: 2ac4 80bc 908d 7b3b 4f49 1d3d 9d6b 843d
000001e0: 6b81 c0bd 9afc 033e 264c ea3d 5b6a 3d3d
000001f0: de41 d23d 61ae 953d cdcb abbc d5a0 053e
00000200: f367 96bc b058 ebbc c8ae 513c fc13 983d
00000210: 70a7 753d 36a4 6bbd 4cff 973d 1218 c83d
00000220: d5bc 853d 2c98 9ebd 3c4b 1bbe 9253 75bc
00000230: ac10 4cbd b24e b33d a08e 90bc fc71 4bbd
00000240: 8beb ce3c f7bb 83bd e316 c6bd e1fb 9f3b
00000250: c8f8 36bd 08c6 a6bd 054c c9bd 77be bbbd
00000260: 0930 3abb 5c0c 6e3d 6ea5 32bd 831d c43d
00000270: af2e 903d b9e7 f8bd 61b1 023d 3d04 ddbd
00000280: 98ca f53d 9f56 01be 30c9 b4bd e9d7 223e
00000290: 6113 833c f8f7 f0bc 5531 c93c 4200 e03d
000002a0: 5196 9c3d 7a89 63bd 8545 ed3c 95c8 00be
000002b0: 1c4d 51bd 9cbb e43c faee d53c e46b b63c
000002c0: bc30 413d 83e2 50bd 9a42 4abd a319 11be
000002d0: 56ca 183d de5d 7abd 832a bebd f48a 063d
000002e0: 0ce9 f0bd a73a e43d 0b64 07be 6aba cf3d
000002f0: 78b3 343d c533 c43d 5bc7 c9bc 29ce 6dbd
00000300: 3319 9fbd 9d22 c0bd e8eb a33c 2bbb 753d
00000310: f263 efbc 222a 903c 5710 213d 3389 8c3d
00000320: 4fcd a9bd 3dcd 29be 0d62 163d 6f75 8c3b
00000330: b58a 04be 204b ac3d 105f 58bc 0bc1 f23d
00000340: f533 32bd cd59 2d3d 2c20 a0bd e74e 1cbe
00000350: 17f6 cfbd a33b 7d3d 059f 31bd e15e b1bd
00000360: 9a8c 573d 3beb 7abd 30fb 91bc 3add 60bd
00000370: ebad e83c dec6 683d e7de 843c 1a39 843d
00000380: a981 1c3d a0cb 70bd 58fc 9f3c 3b70 0d3d
00000390: f2b1 9ebd 980e 31bd 53c1 8dbd a211 b7bd
000003a0: bf86 2b3d b1a9 8e3d 9ba5 13be ba66 953c
000003b0: 902e 473c 26ed d8bd d6f0 e0ba 5ad1 86bd
000003c0: 306a 973d 4ecf d2bb 5250 febd edf2 a2bd
000003d0: cb80 f53d 404e 8bbc 9cb9 b33c 00ca 82bd
000003e0: 90f6 da3d fcd5 dbbd 7dd8 10be a882 a7bd
000003f0: c2f9 d43d 1336 b5bd 00e9 c1bd 1a5a 09be
0.053369705 0.044861287 0.07421469 0.01788908 -0.10698117 -0.062747784 0.075644925 0.043468308
0.010889689 -0.11132395 0.08893407 0.10384071 -0.11391864 -0.0009189416 0.010573657 0.0047857338
0.07124941 -0.09779272 0.122741506 -0.02588004 -0.064058535 0.0522909 -0.112101406 0.033532258
0.062563114 -0.07425301 -0.10015187 0.023899397 -0.01739297 -0.06179604 -0.11827932 0.032847438
0.0662151 0.054608725 -0.0075658257 -0.080019325 0.101408444 -0.0037970857 -0.07328167 0.01916375
-0.12671365 0.04298651 -0.1331725 -0.006440216 0.08577454 -0.083383135 -0.05302642 -0.005110186
-0.10911929 -0.06669611 -0.06314471 -0.031138778 -0.057273574 0.0079427855 -0.025473423 -0.034463655
-0.10446145 0.06425321 0.12263845 -0.0018535813 0.016064022 -0.044613093 -0.06293383 -0.032616284
0.04340154 0.07485027 -0.049615126 0.05858511 -0.102265224 0.096673176 0.089885466 0.024890954
0.073943734 -0.14350626 -0.116896465 0.0190198 -0.08223963 0.012124702 -0.019919654 -0.06352646
0.08398442 0.004968936 0.028949965 0.056897722 0.021870324 0.07385799 0.095023595 -0.054342944
0.11118622 0.10963786 -0.12549278 0.07851033 -0.08605112 -0.08564752 0.027740654 -0.08703332
-0.079776175 -0.13225962 -0.058678545 -0.1080287 0.07564821 -0.10057252 0.07579714 -0.060772642
-0.0789335 -0.11519792 -0.0830197 -0.11929971 0.09322481 0.046268534 0.025257811 -0.015193612
-0.12445822 0.029895931 0.052712917 -0.018184092 -0.015718538 0.0038383938 0.03839999 0.06465838
-0.093996845 0.12889329 0.114403054 0.046244007 0.102664694 0.07308651 -0.020971203 0.13049634
-0.018360114 -0.028728813 0.012798019 0.07425687 0.059974134 -0.05752965 0.07421741 0.09770216
0.065301575 -0.07743868 -0.15165418 -0.014973538 -0.049820587 0.08755244 -0.017646134 -0.04966925
0.0252588 -0.06432336 -0.09672334 0.004882321 -0.04467085 -0.0814324 -0.09828953 -0.09167188
-0.002840998 0.058117256 -0.043614797 0.095759414 0.07040154 -0.121535726 0.031907443 -0.10791824
0.12001532 -0.126307 -0.08827436 0.15902676 0.016000452 -0.029415116 0.024559656 0.10937549
0.07645858 -0.05555103 0.028963814 -0.12576516 -0.051098928 0.02792149 0.02611493 0.022268243
0.047165617 -0.05099727 -0.049379922 -0.14169936 0.037302338 -0.061124675 -0.09285452 0.03284736
-0.117632 0.111439995 -0.13221757 0.101429775 0.044116467 0.09580187 -0.024631193 -0.058057938
-0.07768478 -0.09381602 0.02000995 0.05999295 -0.029222462 0.017598215 0.039322224 0.06862106
-0.08291113 -0.16582198 0.036714602 0.00428646 -0.12943538 0.084127665 -0.013206258 0.11853226
-0.04350658 0.04232197 -0.07818636 -0.15264474 -0.1015436 0.061824452 -0.043364543 -0.08660675
0.052624322 -0.06125949 -0.01781997 -0.054898478 0.028403243 0.05683028 0.01621957 0.06456204
0.03820959 -0.058787942 0.019529507 0.03453086 -0.07748784 -0.04322681 -0.06921639 -0.0893891
0.04187655 0.0696596 -0.14418642 0.01823746 0.012157097 -0.105921075 -0.0017161618 -0.065828994
0.073933005 -0.006433404 -0.12417664 -0.07956491 0.11987456 -0.017005086 0.021939091 -0.06386185
0.10691559 -0.10734174 -0.14145084 -0.081792176 0.103992 -0.088482045 -0.09468269 -0.13413277

dense1.0.bn2.weight f4 [128]
00000000: f488 843f 226c 813f e684 823f 70a5 803f
00000010: 8b9e 7d3f 2a94 7d3f 2cb3 803f 1969 813f
00000020: e1bc 7e3f 322e 7c3f c678 7e3f 4275 7e3f
00000030: 911f 833f faf8 7d3f 0b5c 813f 0ebf 783f
00000040: 7ede 813f a85a 803f 5fbd 7f3f e5e2 813f
00000050: 13cf 7d3f f732 783f 003a 7f3f 0784 723f
00000060: afa5 803f bde4 7e3f e72f 7c3f 3371 813f
00000070: 52bb 7b3f 3b78 7d3f ec01 793f 56c7 7d3f
00000080: 9f36 813f 2f91 793f f9b8 813f 4da0 813f
00000090: 74b3 803f 104d 803f 36a0 7e3f 2ca8 773f
000000a0: 3efa 813f e550 843f 1e35 7e3f 206b 813f
000000b0: 2ead 823f ede9 7e3f f1c2 7e3f 25ae 813f
000000c0: 664d 783f 9c67 823f d02c 7e3f f4f9 803f
000000d0: 9453 763f 0d53 7f3f 66d9 7e3f 2ea6 783f
000000e0: bdc7 7c3f 1460 7b3f 8ca1 7d3f d6fc 833f
000000f0: ce8c 813f 7084 873f 39fd 7d3f 1bf7 813f
00000100: 1f64 793f 028f 7f3f 2f8e 7b3f 5a94 803f
00000110: 650f 863f 2848 7d3f ce1a 813f fa85 7a3f
00000120: ecf9 813f 69cd 803f dac4 793f 4886 7b3f
00000130: c213 7f3f 421e 813f b396 7f3f 0c01 813f
00000140: 904b 823f 7a34 7f3f b85c 7e3f 80b0 823f
00000150: 1272 803f 292b 813f 7b9e 7d3f 3797 813f
00000160: fa64 813f abae 803f f93f 7f3f 5e4d 813f
00000170: 8b38 813f 806e 7a3f 0ada 7f3f 3542 823f
00000180: 542e 7b3f 5279 763f 76b9 803f b205 813f
00000190: dba9 803f e465 853f c732 7e3f 8be4 7b3f
000001a0: dd64 7f3f ec9f 763f cdc3 853f 4b3f 803f
000001b0: 001e 833f 1c42 823f d56c 7e3f 7caf 7e3f
000001c0: 8fa6 7c3f 9f87 7e3f fcd5 7a3f ebd4 833f
000001d0: d180 813f 22e1 773f 1dca 7a3f 5bc6 823f
000001e0: b2b3 783f 1b6c 813f 16ae 7e3f 6cb0 7e3f
000001f0: d2c4 813f 08f3 803f a9cc 813f 7059 783f
1.0354295 1.0111125 1.0196807 1.0050488 0.9907004 0.99054205 1.0054679 1.0110198
0.99506956 0.9850799 0.99403036 0.9939767 1.0244008 0.99208033 1.0106214 0.97166526
1.0146024 1.0027666 0.9989833 1.0147368 0.99144095 0.96952766 0.99697876 0.9473271
1.0050563 0.99567777 0.98510593 1.0112671 0.98332703 0.9901158 0.9726856 0.9913229
1.0094794 0.9748716 1.0134574 1.0127045 1.0054765 1.0023518 0.9946321 0.96740985
1.0154493 1.0337187 0.992998 1.0110817 1.02091 0.9957569 0.99516207 1.013127
0.969931 1.0187869 0.9928713 1.007628 0.9622128 0.997361 0.99550474 0.9712857
0.98742276 0.9819348 0.99074626 1.0311534 1.0121095 1.0587292 0.9921451 1.0153536
0.974184 0.9982759 0.9826383 1.0045273 1.0473448 0.98938227 1.0086305 0.9786068
1.0154395 1.0062686 0.97565997 0.9825177 0.99639523 1.0087359 0.99839324 1.0078444
1.017931 0.9968945 0.9936023 1.0210114 1.0034811 1.0091296 0.99069947 1.0124272
1.0108941 1.0053304 0.9970699 1.0101736 1.009538 0.9782486 0.99942076 1.0176455
0.98117566 0.9627887 1.0056598 1.0079863 1.0051836 1.042172 0.9929623 0.98395604
0.9976328 0.9633777 1.0450379 1.0019315 1.024353 1.0176425 0.99384815 0.9948652
0.9869165 0.9942569 0.97982764 1.0299352 1.0117437 0.968279 0.9796465 1.0216783
0.97149193 1.0111116 0.99484384 0.9948795 1.013819 1.0074167 1.0140582 0.9701147

dense1.0.bn2.bias f4 [128]
00000000: bea3 1e3d 4a6b 84bb d190 273b 16ca 09bc
00000010: 6d64 b8bc 81b2 55bc ae59 a43b f39a 0cbb
00000020: db61 dbbb 39b5 a2ba 2000 c9bb 46c0 29bc
00000030: 267e 8d3c 4be8 cfbc 3def a8bb 9a74 b1bc
00000040: a268 fcba 5029 38bb 9293 273b 7819 e03a
00000050: 49e1 87bc 7d8e 0dbd f37a bebc 70a1 3cbd
00000060: 9e7e 7b3b 067a 13bc b977 afbc b580 11bd
00000070: bb2a 33bc 65b3 c7bc adf1 c6bc 0142 e8bb
00000080: 3d69 0abc 2e9d 1fbc bfd7 f339 9570 363c
00000090: e24d 14bb 7aef 1fbc 1acf 8abc 9166 e2bc
000000a0: 2242 9b3c 8351 363c 37a1 d2bc 5dc2 4bbb
000000b0: 620b 853c 02c0 f4bb 8515 113c f982 b63b
000000c0: 7324 ebbc e9a1 423c 52cb bdbc 835e 793b
000000d0: 853a 0ebd d55e 0ebb fc2c 01bc 0801 dfbc
000000e0: ff93 8fbc 7f39 83bc 9f67 34bc 97a7 013d
000000f0: 5088 36bb dab0 353d f854 fbbb 76dc 8b3c
00000100: 1079 90bc 4ad5 24bc 7ae0 31bc f804 e63b
00000110: 6275 b23b ffc8 91bc 8b17 cf3b f57d a5bc
00000120: 5406 a83b 9816 eabb 769d aebc 73a0 dcbb
00000130: 3f55 d2bb 7df2 653b f04d 58bb eda9 3f3b
00000140: 45bd a6bb 2de2 f7ba 1975 d63a 0170 443c
00000150: d820 0abc fe39 143a 9767 aabb f6c3 16ba
00000160: 6323 e93b 82ca 8b3b 6fc3 dcbb b19e 48bc
00000170: 34b4 45bc 6ba1 cdbc ce68 e73a 792b cc3b
00000180: b55e c9bc 320a 00bd 16db 36bb 5bc5 bdbc
00000190: 0bb7 263c 747b 2b3c 77b9 e2bb a303 e9bb
000001a0: 9cec 20bc 3f5d cdbc f9fd bbba 5fad febb
000001b0: bc69 48ba c6fd 5ebc 5e8f 70bc c2aa 9d3b
000001c0: 93ba b4bb f84b 8b3b 999c e1bc cff5 8ebc
000001d0: 2ac5 c23a 213f cdbc 1053 9dbc 888e 7c3c
000001e0: 9a66 70bc d2aa 893b bdf9 cfbb 483c 84bc
000001f0: 7a86 f1bb 4124 333b a809 f138 fea5 babc
0.038730375 -0.00404111 0.0025568495 -0.008409997 -0.022508824 -0.013043047 0.0050155735 -0.0021454662
-0.006695015 -0.0012413628 -0.006134048 -0.010360783 0.017272066 -0.02537932 -0.0051554726 -0.021662045
-0.0019257257 -0.0028100796 0.0025570136 0.0017097434 -0.016586917 -0.034559716 -0.023251986 -0.046052396
0.003837503 -0.009001261 -0.021419393 -0.035523135 -0.010935481 -0.024377534 -0.024285162 -0.0070879464
-0.008447942 -0.009742064 0.00046509315 0.01113524 -0.002262943 -0.0097616855 -0.016944457 -0.027636798
0.018952433 0.011127832 -0.025711639 -0.0031091191 0.01624078 -0.007469178 0.008855228 0.0055698124
-0.028703904 0.011879423 -0.02316824 0.0038050718 -0.034723777 -0.0021724005 -0.00788426 -0.027222171
-0.017526625 -0.016018627 -0.011011033 0.031653967 -0.0027852245 0.044358112 -0.007670041 0.017072897
-0.017635852 -0.010060618 -0.010856742 0.0070196353 0.005446122 -0.017796038 0.006319945 -0.020201663
0.0051277075 -0.0071438067 -0.021315318 -0.006732994 -0.0064188535 0.0035087161 -0.0033005439 0.002924557
-0.0050884807 -0.001891201 0.0016361802 0.011989594 -0.008430682 0.00056543935 -0.005200337 -0.00057512464
0.007114814 0.004266084 -0.0067371647 -0.012244866 -0.01206689 -0.025101384 0.0017655136 0.0062307683
-0.024581293 -0.031259723 -0.0027901581 -0.023165395 0.010175477 0.010466445 -0.006919082 -0.0071110292
-0.009822037 -0.025068877 -0.0014342658 -0.0077721323 -0.000764515 -0.013610309 -0.014682619 0.0048116157
-0.0055154054 0.0042509995 -0.027540492 -0.017451195 0.0014859785 -0.025054516 -0.019204646 0.0154148415
-0.0146729 0.0042012716 -0.00634691 -0.016142026 -0.007370767 0.0027334841 0.00011493574 -0.02278423

dense1.0.bn2.running_mean f4 [128]
00000000: 9624 a0be 8cd4 453b adae 6bbe 8700 03bf
00000010: 66cc 06bd 411a 01be bbdc 91bc 9de1 9dbe
00000020: 0e64 54be 1bda 73be 19db abbd c358 dfbe
00000030: 8fe1 38be c7dc 0ebe c2f5 94bd f02f 4f3d
00000040: 580e 09be d479 303b 6bcb 48be abe7 01bd
00000050: 4721 8abd bd65 543e ece9 93bd d7f4 a63d
00000060: 14d5 90bb 4e71 d8bd 52ba c6bc 4289 3dbe
00000070: 1fc4 283e 2167 593e 66aa 423e 5cd3 44be
00000080: a723 1abe 5f68 123e 72a1 65be 113a dfbe
00000090: c1ea 6fbe 4700 bcbe 6142 97be 59b8 e43e
000000a0: 7077 b6be 3e36 9abe 472c f93c 107b 6bbe
000000b0: b9d6 e6be 2bc0 c3be 6e65 123d b925 4cbd
000000c0: d57b b83d b830 6ebe f857 1cbe ab64 18bc
000000d0: 4f64 3f3e 1a12 22be 3718 6bbd 4d9d 713e
000000e0: bacd a8bd 3aad 3bbd 6044 27be 1617 75be
000000f0: b34c 95be 9459 3bbe 6722 a63b a55a 89be
00000100: 824f 24bc 9709 adbe 8149 e63d 2bc0 a1be
00000110: b52c 42bb 8194 943e 31e8 b2bd 776c 65be
00000120: 0390 d4be 707c e0be 619e 10be 8457 823d
00000130: ac3e 41be 20bc babd 7dc0 c03d 6f11 80be
00000140: 881a 79be 5f1b f0be befe 2abe 3ead 35be
00000150: 15ec 68be 0d5e c6be ecf6 9d3c 6003 54bd
00000160: 58ee 5ebe 8787 2dbe 70ea 603e bfcb d4bc
00000170: 5558 763c a9da d53d 54fb aabe 3e8e 0fbe
00000180: 7d95 71be 04ec 0d3e 7804 8dbe 785a d0be
00000190: c1ca 1abe 1a22 8a3c 34af e0bd 6456 43be
000001a0: 0ba0 12be 939b b3bd 945d 38be 804b 97be
000001b0: 4162 99bd 2d97 abbe a953 7cbe dd67 2cbe
000001c0: fc19 3b3d ed84 b83b 54da 3ebe c726 6dbd
000001d0: b07c 1ebe 6045 be3e 76cc 88be 7b84 e5be
000001e0: 2b08 263e c2ab afbe 06f8 05bc e1a0 1bbd
000001f0: c07b 85be 893c cabe fdf3 2dbe 3583 8e3e
-0.31277913 0.0030186502 -0.23015852 -0.5117268 -0.032909773 -0.12607671 -0.017805448 -0.30836192
-0.20741293 -0.2381367 -0.08391399 -0.43622407 -0.18054794 -0.13951407 -0.07273437 0.050582826
-0.13384378 0.0026928084 -0.19608848 -0.031715076 -0.067446284 0.20741935 -0.072223514 0.08152168
-0.004419932 -0.10568486 -0.024258766 -0.18509391 0.16481064 0.21230747 0.19010314 -0.19221252
-0.15052663 0.14297627 -0.22424868 -0.4359899 -0.23429395 -0.36718962 -0.2954283 0.44671896
-0.35638 -0.30119509 0.03041662 -0.22996163 -0.45085695 -0.3823255 0.035741262 -0.049840663
0.09007994 -0.23260772 -0.15267932 -0.009301345 0.18690608 -0.15827218 -0.05739614 0.23595162
-0.08242364 -0.0458195 -0.16334677 -0.23934588 -0.2916008 -0.1829589 0.005070019 -0.2682697
-0.010028722 -0.3379638 0.112444885 -0.31591925 -0.0029628698 0.2901955 -0.08735693 -0.22404657
-0.41516122 -0.43844938 -0.14122917 0.063643485 -0.18871564 -0.09117913 0.09411714 -0.250133
-0.24326527 -0.46895882 -0.16698739 -0.17741868 -0.22746308 -0.3874363 0.01928278 -0.05176103
-0.21770608 -0.16946231 0.21964431 -0.02597606 0.015035708 0.10442097 -0.33394873 -0.14019105
-0.23592182 0.13859564 -0.27542472 -0.40694022 -0.15116407 0.016861964 -0.10970917 -0.19075924
-0.14318864 -0.08769908 -0.18004447 -0.2954979 -0.074894436 -0.33513775 -0.24641289 -0.16836496
0.045679078 0.0056310804 -0.18637973 -0.05789831 -0.15477252 0.37162304 -0.2671849 -0.44827637
0.16214053 -0.34310728 -0.008176809 -0.037995223 -0.26070976 -0.3949931 -0.16987605 0.27834478

dense1.0.bn2.running_var f4 [128]
00000000: c297 323e 01f5 303e 7124 1b3e 8484 363e
00000010: fb62 d83d c32e 753d bb45 0b3e 45fe 093e
00000020: 550f 643e b12b 023e 00ed 033e d56d 353e
00000030: 46c0 e73d 7d77 a63d bc36 f53d 99d5 b03d
00000040: 36c3 603e fdaa c13d 08c7 2f3e 20f9 0a3e
00000050: ade0 153e 7d35 c23d ccd2 e93d 78f2 763e
00000060: bafe fa3d 29a2 e03d e473 bc3d 5adb 473e
00000070: ea43 3d3e 8f9a e53d 6d2e 643e bf2c ea3d
00000080: f021 a63d d1a8 743e 06a3 c03d 0cb6 183e
00000090: ca31 c23d b642 103e 6427 3a3e ad78 343e
000000a0: d9d0 303e 2707 f13d df29 9d3d 5913 293e
000000b0: 10e3 1d3e 4e4e 4a3e c1f1 823e 8c7f df3d
000000c0: a8fa be3d 8077 1f3e a94b e73d 1ec7 c63d
000000d0: a364 263e b7cb 333e e207 213e 5b23 0d3e
000000e0: 0aed 203e bcee e43d 0f32 1e3e 1fc5 053e
000000f0: 56b4 3a3e 49b7 463e 08ae b33d 9227 0f3e
00000100: 4a90 2f3e f80a bb3d 100a ba3d 3b2e 493e
00000110: 87c6 073e ebb1 f73d cd6e 6e3d 34ce 173e
00000120: f693 573e 9266 393e be03 ee3d bcfc ca3d
00000130: 007e db3d 2ba1 0a3e 94d0 d83d c804 ec3d
00000140: 8899 443e eb7f 213e 8b62 ef3d ef77 1c3e
00000150: 7e10 e23d 7b8b 1b3e 15d8 653d 68a6 943d
00000160: efc3 f13d f526 de3d a3f4 ac3d 4791 2f3e
00000170: 716f ce3d a2c4 e53d 4ac3 1e3e 37fe 3f3e
00000180: 92d4 bf3d 80fe 023e 6e1d 943d d502 9b3e
00000190: 1814 0c3e fcf5 b93d ec23 c93d cbf6 2a3e
000001a0: 91c8 183e f6cc a03d 4377 2e3e 6582 0e3e
000001b0: 7b9b 043e 409d 1f3e 769c dc3d dfa1 423e
000001c0: ae4b 4c3e 2f7e da3d 7ec3 223e b2d2 143e
000001d0: 440a 703e 6b48 183e 23e7 153e 6cee 263e
000001e0: e97f 223e 0302 f73d f74b 053e 99b9 753d
000001f0: d843 213e e40a f53d 7493 c83d 1f37 4e3e
0.17440704 0.17280962 0.1515062 0.17823988 0.10565754 0.05985905 0.13600819 0.13475902
0.22271474 0.1271198 0.12883377 0.17717679 0.1131597 0.08128259 0.119733304 0.086344905
0.21949467 0.094564416 0.17165768 0.13571596 0.14636488 0.09482858 0.114171594 0.24115932
0.122556165 0.109684296 0.09201792 0.1951727 0.18482938 0.1121112 0.22283335 0.11434316
0.08111942 0.23892523 0.09406094 0.14913195 0.09482153 0.14087948 0.18179089 0.17624159
0.17267169 0.11768942 0.07674002 0.16511287 0.15418649 0.19756433 0.2557507 0.109129995
0.09325153 0.1557293 0.11293728 0.09705947 0.16249327 0.1755818 0.15725663 0.13783018
0.15715423 0.111783475 0.15448783 0.13063477 0.18232855 0.19405855 0.08773428 0.13979939
0.17144886 0.091329515 0.090839505 0.19646542 0.13259326 0.12094482 0.058211137 0.14824754
0.21052536 0.18105534 0.116218075 0.099114865 0.10717392 0.13538043 0.10586658 0.115243495
0.19199193 0.15771453 0.116887175 0.15280126 0.11038302 0.15189926 0.056114275 0.07258302
0.118049495 0.10847274 0.08445098 0.17145263 0.100798495 0.11219145 0.15504184 0.18749319
0.093667164 0.12792397 0.07232176 0.30275598 0.1367954 0.09080121 0.09821305 0.16695707
0.1492026 0.07851593 0.17037682 0.13916929 0.12949936 0.1558733 0.1077203 0.19007061
0.19950745 0.10668599 0.15894887 0.14533499 0.23441416 0.14871375 0.14638953 0.16301888
0.15869106 0.120609306 0.1301726 0.059991453 0.15748537 0.11964968 0.097937495 0.20138215

dense1.0.conv2.weight f4 [32, 128, 3, 3]
00000000: 1d7b 4ebc b7a5 233d 4236 c83c 5ba1 eab9
00000010: 0322 c0bc a247 2dbd 20ba d73b c8ea 223d
00000020: 5ce4 c83c 3314 e83c 2a16 373d 1782 ea3c
00000030: 7cdd a8bc b096 b43c 6613 8bbc 5a5f 29bc
00000040: b19b 26bb 69ba 8cbd 0f78 7abc f34e 4cbd
00000050: 72e2 7bbd bc3c a8bc a765 7fbc bc11 87bc
00000060: 3a7e edbb a0c2 a43c 4063 abbc 21c5 d63c
00000070: 6dc7 efbc 6ca6 03bc 399b f9bc 3299 493b
00000080: 08bf 983c 5962 d5bc 41f1 163c f231 2b3d
00000090: 565d 95bc 8271 33bc 684f 9cbc e943 3bbd
000000a0: f8e8 07bd 539b 6fbd 195e b6bc 7d8a d73b
000000b0: a062 c5bc 9a3b 553c 62c0 7b3c 80d1 eebb
000000c0: d9e8 52bc 66b1 d0bc b095 ecbb 2f9b 803c
000000d0: e545 09bd 852d fdba 755a 273c 85ef 873d
000000e0: be83 9f3c 5d70 863d 0b5e 1f3d 6747 f43c
000000f0: 76e6 403c d06e ee3c 564d c33c c1e5 ac3c
00000100: d746 393c 46a9 01bd a661 7e3b b2fa 423b
00000110: 1f45 853c 6f76 a6bc 003b e73c 471d b53c
00000120: 1108 0dbb 985c 8c3c dc38 73bc acb4 a6bc
00000130: a542 ccbb 1b87 db3c bec1 91bc cd70 8cbc
00000140: 50d6 cdbc 3c1e 77bb 8566 743c 29d7 4f3c
00000150: 8502 07bc e79a 0abc 54ce 90bc 9f1e 173c
00000160: 6707 4b3b b604 09bd c461 4f3c 7ad8 043d
00000170: f874 f43c fa28 4d3d 4171 9ebc 6fbb c93c
00000180: 990b 933c 4e49 a8bb 30dd 0e3c 605b f73c
00000190: b624 b03c 7ac2 733d 921a 3f3c 2ada 133c
000001a0: ba27 c3bb e5a7 463c f1f8 1cbc 783b 883c
000001b0: a6c4 dbbc 6d3a 3d3d 265a 323a 2421 2d3d
000001c0: 6b42 5f3d cfb0 b73c 1fe2 4abb b263 903c
000001d0: 3830 65bc 9e0e 91b7 c91d a83c 5884 e93b
000001e0: dd84 e53c fd66 9f3c 504c 213d 1da0 c5ba
000001f0: 41d6 d03c bcae 823c cde8 873c 8482 8c3c
00000200: ef99 873b 8045 093d c708 f73c e494 283d
00000210: 1072 ee3b c265 c0bc 8e06 94bb 7601 adbc
00000220: 4bdc 1fbc 9dd3 32bb 4aed 113c 7566 a9bc
00000230: 0448 cc3b 7ba5 603c 60be ba3b dbae 5c3c
00000240: 9585 08bd 6561 553d b7a3 8f3c e285 143d
00000250: e386 063d e2ab 8f3c 4c5c e43b 80f0 8b3c
00000260: fbd2 35bd 01aa 28bd c505 43bb 31a2 87bc
00000270: 182b 873c bc4e 9eba 177b 95ba e344 723d
00000280: dfb6 403c 41e6 0bbb 7b8a b2bb b342 a63c
00000290: 7f7e 143c 1692 d038 483f c83c 989b 96bc
000002a0: ed2d a73b 0153 1d3d c927 213b 5d56 84bc
000002b0: 20e4 49bb efcd 34bb 271a 393d e1fd 6e3d
000002c0: f5e1 24bd 4016 2f3d 8217 3a3c 361b 26bd
000002d0: 2d51 83bc 673b 383c 9b27 b33a a155 4ebc
000002e0: d227 993c 4061 35bc 1ec0 5cbc 26c4 8f3c
000002f0: 1bf9 c33c 4765 9fbb 1925 a9bc f7fb 98bc
00000300: 726e 963c 02d7 f23c dd29 9fbc 9ad3 a0bc
00000310: 046e 2ab9 17ae 2cbb 8fa8 59bd c320 bcbc
00000320: 2bf6 f0bc 7448 e1bc fef2 27bc d0dd 1ebb
00000330: d81a 2a3d 808f 363d 066f 243d edc7 26bc
00000340: f9fe 9cbc 42a1 5b3b c3b5 d2bc db9a a5ba
00000350: 093f cdbc d032 2ebc ccd0 2bbc 1ac5 cf3c
00000360: 534d e23b 6936 003d 24e2 313c 4ce2 cf3c
00000370: 5c7a 1d3d 69d0 1dbd 41b3 5f3c 7feb f93c
00000380: 18a0 1dbd 3ee0 63bc bc5a 89bb a536 d6bc
00000390: 5180 143d be7e dd3c 04bc 04bd 2615 b63c
000003a0: 38f2 ffbb 9f9f 07bd 1a2d 8abc adce 44b9
000003b0: 530e abbc b0c7 cb3c 6b5a 203d a830 903c
000003c0: ee0b 7b3a 848f 6dbc 906d 3abc 0ac7 46bd
000003d0: 1fe3 b5bb a1f5 06bd c911 14bd 6635 953c
000003e0: ba8d 9e3b 8e39 54bc a05c 053d 4ff5 043d
000003f0: 2238 083b 2307 e83b d829 9f3c 5a68 a2bb
-0.012602595 0.03995296 0.024439935 -0.00044752177 -0.023453718 -0.042304642 0.006583467 0.039774686
0.024522953 0.028329944 0.04469887 0.028626485 -0.020613424 0.02204451 -0.016977023 -0.010337675
-0.002542239 -0.068714924 -0.015287413 -0.04987998 -0.061495252 -0.020536773 -0.015588201 -0.016487949
-0.0072477134 0.020112336 -0.02092135 0.026217045 -0.029269898 -0.008035284 -0.030469524 0.0030761478
0.018645778 -0.026047872 0.009212793 0.04179568 -0.018232983 -0.010952355 -0.019080833 -0.04571906
-0.03318116 -0.058497738 -0.022261666 0.0065777884 -0.02409488 0.013014698 0.015365692 -0.007288158
-0.012872898 -0.025475215 -0.0072199926 0.015698997 -0.033513922 -0.0019315934 0.010214438 0.066374816
0.019472 0.065644 0.038908046 0.029819204 0.011773696 0.029105574 0.023840588 0.021105649
0.011308393 -0.031655572 0.0038815527 0.0029751477 0.016268311 -0.020320145 0.028226376 0.022108687
-0.00215197 0.017133996 -0.014845099 -0.020349823 -0.0062335306 0.026797822 -0.017792579 -0.017143631
-0.025126606 -0.003770723 0.014917021 0.0126855755 -0.008240347 -0.008459783 -0.01767651 0.009223609
0.0030979754 -0.03345176 0.0126575865 0.03243301 0.029840931 0.050087906 -0.019341113 0.024625508
0.017949866 -0.0051356917 0.008719727 0.030194938 0.02150188 0.05951164 0.01166405 0.009024182
-0.0059556635 0.01212499 -0.009580837 0.01662992 -0.026827168 0.046198297 0.00068035943 0.042267933
0.0545067 0.022423176 -0.0030957533 0.017625663 -0.013988547 -1.7292154e-05 0.020522015 0.0071263723
0.028017456 0.019458288 0.039379418 -0.0015077625 0.02549279 0.01595246 0.0165905 0.017152078
0.0041382234 0.033513546 0.030155553 0.04115762 0.007276781 -0.023486022 -0.004517383 -0.02111886
-0.009757112 -0.0027286776 0.008906672 -0.020678738 0.006234171 0.013711329 0.005698964 0.013469423
-0.03333052 0.052094836 0.01753412 0.036260493 0.03284348 0.017538015 0.0069690105 0.017082453
-0.04439066 -0.041177753 -0.0029758078 -0.016556831 0.01650004 -0.0012077908 -0.0011404481 0.059147727
0.01176235 -0.0021346959 -0.005448637 0.020295477 0.009063362 9.9454235e-05 0.024444237 -0.01838474
0.0051019103 0.038409237 0.0024590364 -0.016154462 -0.003080614 -0.0027588566 0.045190956 0.058347587
-0.040254552 0.04274583 0.011358144 -0.040553294 -0.016029919 0.011244631 0.001366842 -0.012593658
0.018695746 -0.0110705495 -0.013473539 0.017549586 0.023922494 -0.004864368 -0.020647572 -0.018674834
0.018363211 0.02964354 -0.019429142 -0.01963215 -0.00016253447 -0.0026348883 -0.053139266 -0.02296484
-0.029414257 -0.027500369 -0.010250805 -0.0024241097 0.041529506 0.044570446 0.040144943 -0.010179502
-0.01916455 0.0033512865 -0.025721436 -0.0012634652 -0.025054472 -0.010632232 -0.010486793 0.02536254
0.0069061904 0.03130189 0.010857139 0.025376461 0.03844677 -0.038528834 0.013653577 0.030507801
-0.038482755 -0.013908444 -0.0041917246 -0.026149103 0.036255185 0.027037974 -0.03240587 0.022226881
-0.007810857 -0.03311121 -0.01686721 -0.0001876901 -0.020880854 0.024875492 0.03914873 0.017601326
0.0009576668 -0.014499549 -0.011378661 -0.048529662 -0.0055507566 -0.032949094 -0.036149774 0.018213939
0.0048386725 -0.012953175 0.032559037 0.032460507 0.002078541 0.007080929 0.019429132 -0.0049562873

trans1.bn.weight f4 [96]
00000000: 948f 893f 56dd 913f f368 873f 4e8b 853f
00000010: 38d8 8b3f 9e09 933f c6ac 873f e800 883f
00000020: fb36 853f 23fc 883f d790 8a3f 9c43 833f
00000030: 6264 8b3f ada2 843f 5cbe 873f f011 833f
00000040: 9beb 863f 0a59 8b3f 0c2d 863f 8422 8c3f
00000050: 1b81 813f cf26 853f 5f51 853f fb8c 973f
00000060: a86d 883f 7c9d 8d3f 6915 843f 23a3 823f
00000070: 26cb 883f b9fe 863f af42 973f 3c4e 883f
00000080: f6ba 723f 2f64 723f 53d8 733f e5d1 783f
00000090: 38ad 733f 66d7 793f f2ce 7b3f 54d6 733f
000000a0: 2606 743f 729b 7f3f e82f 7c3f 4022 7d3f
000000b0: ba8b 7c3f 6fa9 7e3f f094 753f 4d69 7a3f
000000c0: a322 7d3f fa6e 763f 412e 6e3f 02f3 7d3f
000000d0: 5e0d 7e3f 79de 6f3f 1c13 7b3f 66d6 6f3f
000000e0: 9bbb 6e3f 271d 7c3f f2e6 763f 3d67 793f
000000f0: b4db 723f 1c6b 763f ba08 6a3f 2639 733f
00000100: 9fb3 783f 02b8 723f d709 793f f08f 703f
00000110: 027d 743f ff2d 6d3f eaae 783f a19a 783f
00000120: 246d 733f c07b 6b3f 6e37 7d3f 4b8a 743f
00000130: 34f6 733f be7f 763f 7902 763f 79fa 7d3f
00000140: 0450 763f 0d02 763f 31d2 783f bfaf 7c3f
00000150: 32e3 6b3f 7d93 763f ca69 723f 48af 783f
00000160: 0d7f 723f af66 703f b909 713f 2f49 6c3f
00000170: 9aa4 6e3f 5266 803f 1c17 703f 8b9a 793f
1.0746942 1.1395671 1.0578903 1.0433137 1.092536 1.148731 1.0599601 1.0625277
1.0407404 1.0701946 1.0825452 1.0255008 1.0890009 1.0362145 1.0604968 1.0239849
1.0540651 1.0886548 1.0482497 1.0948033 1.0117525 1.0402468 1.0415457 1.1839899
1.0658464 1.1063685 1.0319034 1.0206035 1.0686996 1.0546485 1.1817225 1.0648875
0.9481653 0.9468412 0.9525196 0.97195274 0.95186186 0.97594297 0.9836265 0.95248914
0.9532188 0.99846566 0.985106 0.98880386 0.98650706 0.99477285 0.95930386 0.97816926
0.98880976 0.96263087 0.9303933 0.99198925 0.99239147 0.9369884 0.98076034 0.9368652
0.93255013 0.9848198 0.96446145 0.97423154 0.9486649 0.96257186 0.91419566 0.95009077
0.9714908 0.94812024 0.9728064 0.9396963 0.95503247 0.9264831 0.971419 0.97110945
0.9508841 0.919857 0.98912704 0.9552352 0.9529755 0.9628867 0.9609752 0.99210316
0.96215844 0.9609688 0.97195727 0.9870567 0.9214355 0.963188 0.9469267 0.9714246
0.94725114 0.9390668 0.9415546 0.9229917 0.9321991 1.0031226 0.9378526 0.9750144

trans1.bn.bias f4 [96]
00000000: f1f3 96ba b7f4 d2bd 93e3 7fbd 7e9c 3bb9
00000010: b68b 14bd 8ece 5fbd cb6c db39 8f42 ae3b
00000020: a27e 8abb 1d7d cebc ba9d f43c c218 f33b
00000030: a593 863b 53f1 24bd 2e67 00bd 8ec8 25bd
00000040: 7e29 a83c 1d8c 06bc eab4 8ebb 0c7e febc
00000050: f8eb 61bc 61d7 a6bc 7bb0 d93c 0eef 28bd
00000060: f0b1 b23b 5014 aabd e024 483c 8708 89bc
00000070: 5908 35bc ac4b aebc 936c b6bd 377c 0fbd
00000080: 1625 06bd 288a 2cbd 17ac 39bd 635d 09bd
00000090: 71f2 0bbd 5247 9bbd b9fd 5c3b 21d6 e2bc
000000a0: 9563 6fbb 04e5 cabd 4698 fcbb 37c3 23bd
000000b0: 83b0 09bd 4fe0 89bd 81c3 98bc 1e79 ce3b
000000c0: 6207 35bc 2907 83bc 6d0b 2abd b408 cdbc
000000d0: f4a3 9cbd b795 2fbd bf00 babd 6a2b 2ebd
000000e0: 7be0 4fbd 07f9 56bc cf08 4fbd 34c7 b4bc
000000f0: 2133 49bd 03dd 82bd 1653 64bd 204d 2dbd
00000100: 43c6 acbc 9e91 49bd da74 11bd de15 f3bc
00000110: 7893 22bd c438 41bd 12a1 27bd 585d 42bb
00000120: 5158 a2bd d3c7 76bd 8f30 a9bc 1575 54bd
00000130: 1b72 08bd 8c84 5bbb 1963 afbc ceb9 33bc
00000140: 859a f0ba 63bc 40bd 7c7d d6bd aa3d 1c3b
00000150: 52c8 eebc a072 c0bc 3360 32bd 739e 45bc
00000160: 3bd4 27bd d228 1cbd 613d 96bc 2be1 3cbd
00000170: ad25 2cbd 8328 803c 9742 1bbd 9010 46bd
-0.0011516792 -0.10300582 -0.06247289 -0.00017892008 -0.03626605 -0.054640345 0.00041851992 0.005317993
-0.0042265216 -0.025206143 0.029860366 0.007418723 0.004106956 -0.040269207 -0.0313484 -0.040474467
0.020527598 -0.008212117 -0.0043550627 -0.031065963 -0.0137891695 -0.020366373 0.02657341 -0.041243605
0.0054533407 -0.083046556 0.012215823 -0.016727699 -0.0110493535 -0.021276318 -0.08907428 -0.03503057
-0.03275021 -0.042123944 -0.045330133 -0.033536326 -0.034166757 -0.07581963 0.0033720566 -0.027689995
-0.0036527861 -0.099069625 -0.007708582 -0.039981093 -0.0336156 -0.067322366 -0.018647911 0.0063010594
-0.0110491235 -0.015994625 -0.041514803 -0.025028564 -0.07648459 -0.04286739 -0.090821736 -0.04252187
-0.05075119 -0.013120896 -0.05054551 -0.022067644 -0.049121026 -0.06389811 -0.0557433 -0.04230988
-0.021090632 -0.049211137 -0.03551183 -0.029673513 -0.03969142 -0.047173277 -0.040925093 -0.0029657688
-0.07927001 -0.06024916 -0.020653037 -0.05186947 -0.033311944 -0.0033495752 -0.021409558 -0.010969592
-0.0018356597 -0.04705466 -0.10473153 0.0023840466 -0.029148255 -0.023492157 -0.043548774 -0.012061703
-0.040973883 -0.038124867 -0.018339815 -0.046113174 -0.042028118 0.015644317 -0.037905302 -0.04835564

trans1.bn.running_mean f4 [96]
00000000: 33e9 cabc db79 133e 2668 edbe 1867 d3bf
00000010: 0a34 5fbe 85a8 053f d424 abbf 1c51 d1bd
00000020: b65b 56bf 6c86 003f 01a2 b2bf 820c f4bf
00000030: 3969 5bbe 2660 4ebe 359f 863e 47c2 233f
00000040: 11b9 703e e9ff f3be 0cf5 3cbf 7e19 4b3e
00000050: 091b 55bf 9819 f0be 4073 4cbf 9084 343d
00000060: 6b10 12bd cc41 d5be 0448 d6bf 9379 ecbe
00000070: f7ff 673e 5e2e 8abf 4c94 9e3e b910 eebe
00000080: 6442 27ba 53e8 9abc 1b62 1fbc 6a61 2c3b
00000090: aed0 ab3c 4111 2ebb d0e7 003c 6215 cd3c
000000a0: 8e97 09bd 1eca ddbb 7b90 0e3c 2981 bf3b
000000b0: 3725 9cbb 6ecc b63b e226 0abd a8e3 813b
000000c0: 257d 07bb 1b1e c0bc 5cc6 25bd 39a3 82b9
000000d0: 5df2 e5ba 4b63 32bd 1f38 7c3b 541c 96bb
000000e0: 987f 7f3d 1a96 883c d1b3 b0bb 9c36 1ebc
000000f0: 11f2 d7bb 86c6 63bc d9e8 953c 4905 b53c
00000100: 631b 5c3c 25d7 23bd 6129 5f3c 7e51 3ebc
00000110: de4a 56bd 6e21 60bc 3c43 1e39 9d28 f5bb
00000120: 8658 edbb febb 283d 717d de39 bd4f 883c
00000130: f0e7 8039 aeaf 243c 0681 45bd af8c eeba
00000140: 1618 9cbc 35e9 7e3c 4a15 653b b932 fd3b
00000150: c1d3 09bd 61b6 603c b9d3 99bc 9280 5b3c
00000160: e619 eabc dcfb 38bd c223 d6ba f3b0 603d
00000170: 563d e8bc 6883 463b 185d a0bd 7157 5bbb
-0.024769401 0.14401953 -0.4636852 -1.6515837 -0.21797195 0.52210265 -1.3370614 -0.102205485
-0.8373369 0.5020511 -1.395569 -1.9066317 -0.21426858 -0.20153865 0.2629334 0.6396832
0.23508097 -0.4765618 -0.7381141 0.19833943 -0.8324438 -0.46894526 -0.7986336 0.044071734
-0.03566019 -0.41651762 -1.6740727 -0.46186504 0.22656237 -1.07954 0.30972517 -0.46497133
-0.00063804374 -0.018909609 -0.00972798 0.002630318 0.02097353 -0.0026560577 0.007867768 0.02503461
-0.0335918 -0.006768479 0.008701439 0.0058442545 -0.0047651785 0.005578569 -0.033728488 0.0039639063
-0.0020673957 -0.023451855 -0.040472373 -0.00024917143 -0.0017543543 -0.043551724 0.00384856 -0.0045810137
0.062377542 0.016673137 -0.0053925295 -0.009656575 -0.006590136 -0.013902312 0.018299507 0.022097247
0.013434264 -0.0400001 0.013620705 -0.011616109 -0.052317493 -0.013679845 0.00015093101 -0.007481648
-0.007243219 0.04119491 0.000424366 0.016639585 0.0002458687 0.010051651 -0.04821875 -0.0018199886
-0.019054454 0.015558531 0.0034955316 0.007726994 -0.03364921 0.0137153575 -0.018777715 0.013397353
-0.028576802 -0.045162067 -0.0016337561 0.054856252 -0.02834956 0.0030290727 -0.07830256 -0.0033468867

trans1.bn.running_var f4 [96]
00000000: 23b3 1e3f 6710 aa3f c855 293f 6e2a 4f3f
00000010: 867c 973f 98bb 983f dc1b 6f3f 7f40 2d3f
00000020: 47bd 503f 68e1 883f e0c3 733f 3064 3a3f
00000030: b559 4d3f 1087 3e3f d33d 5f3f 6ec8 173f
00000040: cc23 593f e663 6f3f 11f9 363f 2213 4d3f
00000050: 0d97 2d3f 1a8f 5e3f 5c5e 273f ba41 cd3f
00000060: 7c3e 643f ef97 a83f ac7d 773f db7c 0b3f
00000070: b1d3 743f 0cc1 493f 74d2 c33f 4592 7e3f
00000080: 1ff5 3f3d e9e4 523c d22a 263d 62df c73c
00000090: 28e1 523d c092 fa3c dcbb 973d cba9 df3c
000000a0: b5e9 003d f9fc 553d ee77 463d 9adf 843c
000000b0: 3064 293d 49db b43d e23d 6d3d 9b7c 013d
000000c0: 3d39 f03c c514 993d 8847 933e 4b03 833d
000000d0: 6408 123d 95a0 ad3d 1ab3 c13c 1dfd 4e3d
000000e0: 2add 533e 44a9 823d e28b b63c 6b16 093d
000000f0: 0c10 9f3c 47f3 f73c 7fda 803d b99a fd3c
00000100: 92b9 4a3d 4c63 1c3d 4e65 443d ad3d 973c
00000110: 645e 863d 5aa2 733d 2984 063d 0042 033d
00000120: 5060 5d3c ace9 093e 4559 9e3d f88d 323d
00000130: 863e 803d 3616 c73c cfd0 2f3d 1852 9a3d
00000140: afe7 a13c 13a8 8a3d c3d5 9e3c 7122 b13d
00000150: 24b1 4a3e 39a8 e23c c549 f43c 2826 723d
00000160: ba5b e73c 245b 153d 7414 f83c a109 3a3e
00000170: b8e4 ab3c d775 c33d e974 e73e e7a7 b43c
0.6199209 1.3286256 0.66146517 0.8092412 1.1834877 1.1932249 0.93401885 0.6767654
0.81538814 1.0693789 0.95220757 0.72809124 0.8021501 0.7442484 0.8720371 0.59290206
0.84820247 0.9351181 0.71473795 0.8010732 0.6780861 0.86937106 0.65378356 1.6035683
0.89157844 1.3171366 0.96676135 0.5448739 0.95635515 0.7881019 1.52986 0.9944194
0.046864625 0.012871959 0.04056818 0.02439851 0.051484257 0.030587554 0.07408878 0.027302643
0.03147288 0.052243207 0.048454218 0.016219903 0.041355312 0.08830888 0.057920344 0.031612974
0.029324168 0.074746646 0.28765512 0.063971125 0.035652533 0.08477894 0.023644973 0.050534356
0.20689836 0.06379941 0.022283498 0.033468645 0.019416831 0.03026737 0.06291675 0.030957567
0.04949338 0.038180634 0.047948174 0.018462026 0.06560972 0.059481002 0.03284088 0.032045364
0.013511732 0.13468045 0.077318706 0.043592423 0.062619254 0.024302583 0.042923745 0.075351894
0.019763796 0.06770339 0.019389039 0.08649147 0.19794136 0.027668105 0.029820332 0.05911842
0.02824198 0.03646387 0.03028319 0.18167736 0.020983085 0.095439605 0.45206383 0.022052718
