w3/cifar_net_original.pth (torch, 251275 bytes, 10 tensors)

conv1.weight f4 [6, 3, 5, 5]
0	0x3dc48a6d	0.09596715
1	0xbe6b398e	-0.22971174
2	0xbe979d8b	-0.29612383
3	0x3ea67fd5	0.32519403
4	0x3e116740	0.14199543
5	0x3d28f10d	0.04124551
6	0xbdef05ce	-0.11671029
7	0xbeef66fe	-0.46758264
8	0x3d90b063	0.07064893
9	0x3ebffb0a	0.37496215
10	0xbc946b34	-0.018117525
11	0x3d8ba84c	0.068192095
12	0xbe4c76ad	-0.19967146
13	0xbd85297a	-0.06502052
14	0xbe33da21	-0.17563678
15	0xbc96f51c	-0.018427424
16	0x3e81d0c7	0.25354597
17	0x3dc4ab0d	0.09602938
18	0xbe73302b	-0.23748843
19	0xbebb6fc5	-0.3660871
20	0x3d9f7819	0.07786579
21	0x3e633bba	0.22190753
22	0x3dc02577	0.09382146
23	0xbea7a530	-0.32743216
24	0x3da3c487	0.07996469
25	0x3e2b95a3	0.167563
26	0xbd8b9f7f	-0.06817531
27	0xbe7659d0	-0.24057698
28	0x3ebccbf2	0.36874348
29	0x3d8bbe14	0.06823364
30	0x3e8a6f4d	0.2703804
31	0x3d0d77bd	0.03453802
32	0xbeed2f15	-0.46324983
33	0x3d58f1b7	0.052964892
34	0x3edb12dc	0.42787826
35	0x3e2e19be	0.17002007
36	0x3e4e8ba7	0.2017046
37	0xbce5f072	-0.028068755
38	0xbe0a546c	-0.13508767
39	0xbdf3e79c	-0.1190941
40	0x3cbb0b57	0.022832556
41	0x3e904213	0.2817541
42	0x3df55d52	0.1198069
43	0xbe5b4b6c	-0.2141549
44	0xbe1d2e49	-0.15349688
45	0x3ddbd56b	0.107340656
46	0x3edc29b5	0.4300057
47	0x3d573410	0.052539885
48	0xbea6b5f0	-0.32560682
49	0x3c933112	0.017967734
50	0xbd90702e	-0.070526466
51	0xbe6c81d8	-0.23096406
52	0xbec1fae3	-0.37886724
53	0x3eb0d298	0.3453567
54	0x3e328ca0	0.17436457
55	0x3e36a556	0.17836508
56	0xbd40cac2	-0.047068365
57	0xbf09272a	-0.53575385
58	0x3c9ca860	0.019123256
59	0x3eab24bf	0.33426473
60	0x3d768328	0.060183674
61	0x3dece224	0.115665704
62	0xbe41aaa8	-0.18912756
63	0xbe329aa7	-0.17441808
64	0xbd553ecb	-0.052061837
65	0x3db74b7b	0.08949944
66	0x3ecb7ee5	0.3974525
67	0x3e63b15d	0.22235627
68	0xbea2f4de	-0.31827444
69	0xbee76c2c	-0.45199716
70	0x3d8bc4c7	0.06824642
71	0x3ee67a7a	0.45015317
72	0x3de23a3d	0.11046264
73	0xbe985a16	-0.2975623
74	0xbe08bcda	-0.13353291
75	0x3eb614cb	0.3556274
76	0x3f0caee0	0.5495434
77	0x3f15dacc	0.5853698
78	0x3e27575d	0.1634192
79	0x3ec11593	0.37711772
80	0x3ed945c8	0.4243605
81	0x3ec91eea	0.39281398
82	0x3e22c150	0.15894055
83	0xbe4a0ed8	-0.19732225
84	0x3d80c1ab	0.06286939
85	0x3d9b3a41	0.075794704
86	0xb788ee80	-1.6323524e-05
87	0xbe835fcf	-0.25659034
88	0xbec6ae64	-0.38804924
89	0x3cfd415f	0.03091496
90	0xbe2aad4d	-0.16667672
91	0xbe8dce9d	-0.27696696
92	0xbf0ed80c	-0.5579841
93	0xbe2e531e	-0.17023894
94	0x3e25ec72	0.16203478
95	0xbde7497f	-0.11293315
96	0xbe77129d	-0.24128194
97	0xbe41b19f	-0.18915413
98	0xbc87c08b	-0.016571304
99	0x3e018a8b	0.12650506
100	0xbdb91e6d	-0.090390064
101	0xbcf2bf07	-0.029632105
102	0xbe2a0812	-0.16604641
103	0xbf06f651	-0.527196
104	0xbeddcb2d	-0.43319073
105	0x3dde8578	0.10865301
106	0xbd0369ef	-0.032083448
107	0xbea74881	-0.32672504
108	0xbf077a4f	-0.52921003
109	0xbe2563ac	-0.16151303
110	0x3dddc294	0.108281285
111	0xbe47af7d	-0.19500537
112	0xbf158acd	-0.5841492
113	0xbed91f32	-0.42406613
114	0x3e3b544b	0.18293874
115	0xbd3b5d67	-0.045743372
116	0xbe7ce38c	-0.24696177
117	0xbe91b8b5	-0.28461233
118	0xbe35964d	-0.17733116
119	0x3e4a13a1	0.1973405
120	0x3e25e798	0.16201627
121	0xbb1d0346	-0.002395825
122	0xbd49bd10	-0.04925257
123	0x3e7a6fbf	0.2445669
124	0x3ef254ef	0.47330424
125	0x386c7d60	5.638355e-05
126	0xbddcdf1d	-0.10784743
127	0x3dcb6d94	0.0993301
128	0xbdf50883	-0.11964514
129	0xbe7374e7	-0.23775063
130	0x3e00830c	0.1254999
131	0x3d14909f	0.036270734
132	0xbdf1d53d	-0.1180825
133	0xbeac8593	-0.3369566
134	0xbc5ee542	-0.013604464
135	0x3e6b92f8	0.23005283
136	0x3dd1ad2e	0.102381095
137	0xbe8a8ecd	-0.27062073
138	0xbe3dead2	-0.18546608
139	0x3e4aa76a	0.19790426
140	0xbd0400c0	-0.032227278
141	0xbdbd9625	-0.092571534
142	0xbe2d91ae	-0.16950104
143	0x3cc3b106	0.023888122
144	0x3ef1ee98	0.47252345
145	0x3e31f8de	0.17380092
146	0x3dc0117c	0.09378335
147	0x3d9bce90	0.07607758
148	0x3eceb714	0.40374053
149	0x3f099687	0.5374531
150	0xbe32d0cc	-0.17462462
151	0xbe362485	-0.17787369
152	0xbd7f648d	-0.062351752
153	0xbccdf126	-0.025139403
154	0xbd857e67	-0.0651825
155	0x3cee7ece	0.0291132
156	0x3da46022	0.080261484
157	0x3d5910e6	0.05299463
158	0x3deabf94	0.11462322
159	0x3b6165ec	0.0034393026
160	0xbcc723ee	-0.024309125
161	0x3e22dd5c	0.15904754
162	0x3e19098a	0.14945045
163	0x3d8c45b7	0.068492346
164	0x3d5b2c1c	0.053508863
165	0x3e3db554	0.18526202
166	0x3ddec059	0.10876531
167	0x3d8c3031	0.06845129
168	0x3dc4a40c	0.09601602
169	0x3da1b144	0.07895139
170	0x3cbfe404	0.023424156
171	0x3d9ede8e	0.07757293
172	0x3e237af7	0.15964876
173	0x3dabe952	0.08394112
174	0x3e368d92	0.17827442
175	0xbe38f71a	-0.18063012
176	0xbd405f13	-0.04696567
177	0xbd8d6b88	-0.069052756
178	0x3aa8421c	0.0012837085
179	0xbdf6fb5b	-0.12059661
180	0xbdd54dcf	-0.104152314
181	0x3d8f2157	0.06988781
182	0x3d282633	0.041052055
183	0x3dbfeed3	0.09371724
184	0x3dcd36ff	0.10020255
185	0xbdf76885	-0.120804824
186	0xbd0ce3e5	-0.034397025
187	0x3dcb4472	0.09925164
188	0x3d952790	0.072829366
189	0x3d24b86f	0.040214952
190	0xbe58d6b0	-0.21175647
191	0x3d076860	0.033058524
192	0x3d25448d	0.04034858
193	0xbd53b589	-0.051686797
194	0xbd5525e1	-0.052038077
195	0xbdebe493	-0.115182064
196	0xbd0ea2a7	-0.034823086
197	0x3c6d2101	0.014473201
198	0xbd1148bd	-0.03546976
199	0xbe2c29e9	-0.16812862
200	0xbd0040cb	-0.03131179
201	0x3d9b8894	0.075944096
202	0x3e97b97d	0.29633704
203	0x3e8ac233	0.27101287
204	0x3e7b5c5a	0.24546948
205	0xbdcb2fe8	-0.09921247
206	0x3d3dba31	0.046320144
207	0x3e82837a	0.25490934
208	0x3e3f4599	0.18678893
209	0x3c0a89a9	0.008455672
210	0xbd3a23b3	-0.0454442
211	0x3e0ea4d4	0.13930064
212	0x3e096523	0.13417487
213	0x3dbf8998	0.09352416
214	0xbd0bd6fc	-0.034140572
215	0xbdd6bbbd	-0.10485027
216	0x3d1794a1	0.037006978
217	0x3d3b433a	0.04571841
218	0x3de3be7d	0.11120317
219	0xbc80a264	-0.015702434
220	0xbd904576	-0.070444986
221	0xbd3f9804	-0.046775833
222	0xbd424609	-0.047430072
223	0xbcb93596	-0.02260856
224	0xbe0b5f88	-0.13610661
225	0xbed61035	-0.4180924
226	0xbeef916e	-0.46790642
227	0xbeddad1a	-0.4329613
228	0xbeddf7b8	-0.43353057
229	0xbece9320	-0.40346622
230	0xbd819831	-0.06327856
231	0xbcad44c0	-0.021150947
232	0x3de4c5c6	0.11170535
233	0xbd40c80f	-0.04706579
234	0xbda9ca66	-0.082905576
235	0x3ef3ab22	0.475915
236	0x3f187c24	0.59564424
237	0x3f0b3eaf	0.5439252
238	0x3ea41241	0.32045177
239	0x3c672ba4	0.014109526
240	0xbd47f05b	-0.048813205
241	0xbcf3c395	-0.029756347
242	0xbd1f73c6	-0.03892877
243	0x3dd92bfa	0.10604091
244	0x3c830cf3	0.015997386
245	0xbdec2d7d	-0.11532114
246	0xbe9ccae1	-0.30623534
247	0xbe8c7db7	-0.27439663
248	0x3d16b400	0.036792755
249	0x3dce24dd	0.10065625
250	0xbc313529	-0.010815897
251	0xbe19f849	-0.1503612
252	0xbe0a0d44	-0.13481623
253	0xbe1342c8	-0.14380944
254	0xbdcb305c	-0.09921333
255	0x3e185a21	0.14878131

conv1.bias f4 [6]
0	0xbda01a36	-0.07817499
1	0xbed4a64c	-0.41533124
2	0xbc2cf768	-0.010557033
3	0xbec6e3a0	-0.3884554
4	0xbe0633fc	-0.13105768
5	0x3ef25b5b	0.47335324

conv2.weight f4 [16, 6, 5, 5]
0	0x3e058d4a	0.13042179
1	0xbe1baf46	-0.1520358
2	0xb9cad954	-0.00038690364
3	0xbd55e4c6	-0.05222013
4	0x3d86a3ef	0.065742366
5	0x3c7256f2	0.014791237
6	0xbdc3dd40	-0.095636845
7	0x3dfe69bd	0.12422512
8	0xbca3f0b0	-0.02001223
9	0x3da1a2ef	0.07892405
10	0x3df3a23c	0.11896178
11	0xbd1b372c	-0.037894413
12	0x3e6046a1	0.21901943
13	0xbcfefe0e	-0.031127002
14	0x3d82ff1e	0.06396316
15	0x3e2f8a56	0.17142615
16	0xbcc528d4	-0.02406732
17	0x3daeb26b	0.08530124
18	0x3e1583fd	0.14601131
19	0x3d115238	0.0354788
20	0x3c90ec31	0.01769075
21	0xbdf9231e	-0.12164901
22	0xbd7ab195	-0.06120451
23	0xbba40475	-0.005005414
24	0xbdcc8128	-0.09985572
25	0x3d8d1979	0.06889624
26	0x3e3a5228	0.18195403
27	0x3c4956cb	0.012288759
28	0x3d424600	0.04743004
29	0x3de1a5d1	0.11017955
30	0x3ea451bb	0.32093605
31	0x3bab85fa	0.005234477
32	0x3d91656f	0.07099425
33	0xbdb190af	-0.08670174
34	0x3e009fb0	0.12560916
35	0x3e886150	0.26636744
36	0xbd4026c0	-0.046911955
37	0x3db62ab5	0.088948645
38	0x3d8be3cb	0.068305574
39	0x3bdcdfdc	0.0067405533
40	0x3e9eb20f	0.30995223
41	0x3d4a4ee8	0.049391657
42	0x3e66b24e	0.22528955
43	0x3e305cb0	0.17222857
44	0x39f1c636	0.0004611478
45	0x3df6f8c4	0.12059167
46	0xbd2395c3	-0.039937746
47	0xbc48a1ba	-0.01224559
48	0x3db75e04	0.08953479
49	0xbbfac7f3	-0.0076532303
50	0x3e6e8ca9	0.23295845
51	0x3db8fe0d	0.09032831
52	0x3e107e21	0.14110614
53	0x3d1eb800	0.038749695
54	0x3de39b57	0.11113613
55	0x3d1bab51	0.038005177
56	0xbb514f19	-0.0031938015
57	0xbd8ce98a	-0.068804815
58	0xbde5fe3a	-0.112301305
59	0xbc30c030	-0.010788009
60	0xbcd4beb6	-0.025969844
61	0x3d9ca8c4	0.07649377
62	0xbe06ae32	-0.13152388
63	0xbd9d4405	-0.07678989
64	0xbdbab17a	-0.09115882
65	0xbb3c56ea	-0.0028738328
66	0x3d1d3d54	0.038388565
67	0xbd99b5ae	-0.07505356
68	0xbce9a861	-0.028522672
69	0xbbe02585	-0.00684041
70	0x3e122102	0.14270404
71	0x3deeadb2	0.116542235
72	0xbcda711f	-0.026665268
73	0x3e25fbd0	0.1620934
74	0x3df9ec73	0.12203302
75	0xbd84baf6	-0.064809725
76	0xbd8979d8	-0.06712693
77	0x3d59b34c	0.053149506
78	0x3df23a1a	0.11827488
79	0xbd285fd6	-0.04110702
80	0xbe5b8028	-0.21435606
81	0xbd0ca2b6	-0.03433486
82	0x3d985b16	0.07439248
83	0x3d7a055e	0.061040275
84	0x3cf8ff92	0.030395303
85	0xbd50b1a1	-0.05095065
86	0xbd74c213	-0.059755396
87	0x3c983e1c	0.018584304
88	0x3debf215	0.11520783
89	0x3db61fbe	0.08892773
90	0xbe14a3ac	-0.14515561
91	0xbd3d7f7d	-0.04626416
92	0x3d53db3a	0.051722743
93	0x3d793279	0.06083915
94	0x3e152f29	0.14568771
95	0xbcc4d131	-0.024025531
96	0x3d96336f	0.07334029
97	0x3d53a4f9	0.051671002
98	0xbd872f1d	-0.06600783
99	0xbd95d893	-0.07316699
100	0xbe18e445	-0.14930828
101	0xbe091673	-0.1338747
102	0xbd917a5f	-0.071034186
103	0xbcf3b43e	-0.029749032
104	0xbdb91a88	-0.090382636
105	0xbe0d51f5	-0.13800795
106	0xbdc0cccb	-0.09414061
107	0x3d44de4a	0.048063554
108	0xbd02cd71	-0.031934205
109	0xbd89e890	-0.06733811
110	0x3cf66933	0.03007946
111	0xbcd19cf7	-0.025587542
112	0x3d5b98c3	0.05361248
113	0xbc755126	-0.014972961
114	0x3b7d2d6e	0.0038631815
115	0x3d1c7a4a	0.03820256
116	0xbd02d1d6	-0.031938396
117	0xbd7fadcd	-0.06242161
118	0x3d84f780	0.064925194
119	0xbdba1139	-0.09085316
120	0xbe3b4ad5	-0.18290265
121	0xbe684fbb	-0.22686665
122	0xbe738aa8	-0.23783362
123	0xbe38a58f	-0.18031906
124	0xbe72f4ca	-0.23726192
125	0xbccecd72	-0.025244448
126	0x3b58dd8f	0.0033091044
127	0xbd5657cf	-0.052329835
128	0xbca9b36c	-0.020715438
129	0xbaba3c76	-0.0014208693
130	0xbde6bac3	-0.11266091
131	0xbd8716a6	-0.06596117
132	0xbc5d4efe	-0.013507603
133	0xbc3287d5	-0.010896643
134	0xbc7fda1e	-0.015615968
135	0xbd409eea	-0.047026552
136	0x3c506c75	0.012721171
137	0xbb9bb7a4	-0.0047521163
138	0x3c244a7f	0.010027527
139	0x3d2dbf60	0.042418838
140	0xbdb42588	-0.08796221
141	0x3d9fd2da	0.078038886
142	0x3d0bea0b	0.034158748
143	0x3d568d8d	0.052381087
144	0x3dc10800	0.09425354
145	0xbde9c805	-0.11415104
146	0xbc6dbbd0	-0.01451011
147	0x3b2d91e5	0.0026484665
148	0x3e00ec2f	0.12590097
149	0x3e0bd833	0.13656692
150	0xbd707ac0	-0.058710814
151	0xbe129c89	-0.14317526
152	0xbdea20cf	-0.11432039
153	0xbd2c5625	-0.04207434
154	0x3d8b4711	0.06800664
155	0xbc480c6e	-0.012209995
156	0xbe18391e	-0.14865538
157	0xbcbe0ff6	-0.02320097
158	0xbe1c85c3	-0.15285401
159	0xbdbcaebd	-0.09213016
160	0x3d1ad345	0.03779914
161	0xbcb4abea	-0.022054631
162	0xbd4c2d56	-0.049847923
163	0xbcdac039	-0.026702987
164	0xbdf21810	-0.11820996
165	0xbd88657f	-0.06659984
166	0x3d5256e1	0.051352385
167	0x3da9a900	0.08284187
168	0x3df1275c	0.11775085
169	0xbd60f464	-0.05492057
170	0x3e672248	0.22571671
171	0xbbecca6f	-0.0072262804
172	0x3e0efb51	0.13963057
173	0x3df65298	0.12027472
174	0x3e25d53b	0.16194622
175	0x3e1dc3b0	0.1540668
176	0x3eb22b9f	0.34798905
177	0xbd8f3107	-0.06991773
178	0xbe8d4651	-0.2759271
179	0xbe4f48d2	-0.20242622
180	0x3ea5bd04	0.3237077
181	0x3e0c2c83	0.13688855
182	0xbd899d17	-0.06719416
183	0xbe7f867b	-0.24953644
184	0xbe8b9500	-0.27262115
185	0x3e914b42	0.2837773
186	0x3b6bff76	0.003601042
187	0xbe5221da	-0.20520726
188	0xbdc04054	-0.093872696
189	0xbe98a18b	-0.29810748
190	0x3e90b884	0.28265774
191	0xbd537044	-0.051620737
192	0xbe0db021	-0.13836719
193	0xbda0c593	-0.07850184
194	0xbe465775	-0.193693
195	0x3dea3cc7	0.114373736
196	0x3d2fceb6	0.042921744
197	0xbd5ccc89	-0.053905997
198	0xbd1ef542	-0.038808115
199	0xbe273b26	-0.16331157
200	0xbe4c2d3b	-0.19939129
201	0xbe731c04	-0.23741156
202	0xbe15a410	-0.14613366
203	0x3e0688f2	0.13138178
204	0x3e315969	0.17319264
205	0xbe928024	-0.2861339
206	0xbdfae4d4	-0.12250677
207	0x3e18f463	0.14936976
208	0x3de07f6f	0.10961806
209	0x3e899070	0.2686801
210	0xbe81bcd8	-0.2533939
211	0x3c6268ec	0.013818961
212	0x3dc0808e	0.0939952
213	0x3cf4e90a	0.029896278
214	0x3e3c6d47	0.18401061
215	0xbe0ec620	-0.13942766
216	0xbcf0781d	-0.02935415
217	0x3d3d4906	0.04621222
218	0x3cebe815	0.028797189
219	0x3e15f761	0.14645149
220	0xbe7fbd8c	-0.2497465
221	0xbd0a3cbd	-0.03374933
222	0xbd01bdc9	-0.031675134
223	0xbb0d152d	-0.0021527514
224	0x3dddce57	0.10830372
225	0xbcb3ddad	-0.02195629
226	0xbdf1485f	-0.11781382
227	0xbdf1ca9d	-0.118062235
228	0x3dc836f9	0.0977611
229	0x3dc27e67	0.094967656
230	0xbd82bc5b	-0.06383582
231	0xbe3a5c7c	-0.18199342
232	0xbddaa9ba	-0.10676904
233	0xbc713042	-0.014720978
234	0x3e269f70	0.16271758
235	0xbd9ee4cb	-0.077584825
236	0xbe6822d7	-0.2266954
237	0xbe3a1c36	-0.18174824
238	0xbd9f00bc	-0.07763812
239	0x3c1a698b	0.0094245775
240	0xbdb35c7e	-0.08757876
241	0xbe168984	-0.14700896
242	0xbe34c625	-0.17653711
243	0xbe383ac3	-0.17991166
244	0xbdcfc910	-0.101457715
245	0x3cd7d492	0.026346479
246	0xbd97e021	-0.07415796
247	0xbde02ffe	-0.10946654
248	0xbdf8ac24	-0.12142208
249	0xbd3a5ea4	-0.045500413
250	0x3dbe73f0	0.09299457
251	0x3e01a463	0.12660365
252	0x3bd9f15b	0.0066510863
253	0xbe002a0a	-0.12516037
254	0xbde0d212	-0.10977568
255	0x3e5becad	0.21477003

conv2.bias f4 [16]
0	0xbee8ed34	-0.45493472
1	0x3e89088c	0.26764333
2	0xbc07aeb6	-0.0082814
3	0x3e8c4f06	0.2740404
4	0xbdade420	-0.08490777
5	0x3e73081c	0.23733562
6	0x3d82ad27	0.063806824
7	0x3f8183eb	1.0118383
8	0xbe9a93cb	-0.30190882
9	0xbe9b12f9	-0.30287912
10	0x3ebab4d6	0.36466092
11	0x3eadd672	0.3395267
12	0xbc4d21a5	-0.0125202285
13	0x3e8a12bb	0.26967415
14	0xbf24f84a	-0.6444136
15	0xbca55967	-0.020184232

fc1.weight f4 [120, 400]
0	0xbc7e3ff1	-0.0155181745
1	0xbc042eeb	-0.008067827
2	0x3d4e4ddb	0.050367218
3	0x3cc99895	0.02460889
4	0x3d1c3767	0.038138773
5	0x3c9d1373	0.019174313
6	0xbd29c2c1	-0.041445497
7	0xbc0e284d	-0.008676601
8	0x3d182437	0.037143912
9	0x3d4d15e5	0.05006971
10	0xbd51aba0	-0.051189065
11	0xbcee190a	-0.029064674
12	0xbcb96006	-0.022628795
13	0x3da7a417	0.081855945
14	0x3da9bafa	0.08287616
15	0xb9bc7092	-0.00035942026
16	0x3cd73d70	0.026274413
17	0x3d6b3b64	0.057429686
18	0x3c3e1854	0.01160248
19	0x3c071407	0.008244521
20	0x3d0f48f2	0.034981675
21	0x3d7d818a	0.061891116
22	0xbbfef2eb	-0.007780423
23	0x3a10d37e	0.0005524679
24	0x3d530dca	0.051526822
25	0xbd681b44	-0.056666628
26	0xba2a16e7	-0.0006488398
27	0x3c4f9ffd	0.0126724215
28	0xbb3285a4	-0.00272403
29	0xb9a1895c	-0.00030810654
30	0x3d017dd1	0.03161413
31	0xbcc9f24e	-0.024651673
32	0xbcdabb71	-0.026700707
33	0x3cccc99c	0.024998479
34	0x3cb6488f	0.022251396
35	0x3c142efb	0.009044404
36	0x3d61e504	0.055150047
37	0xbd504e15	-0.050855715
38	0xbd36c5a8	-0.044622093
39	0x3d427c22	0.047481664
40	0xbd88a136	-0.066713735
41	0x3d68baca	0.05681876
42	0xbbc82f6b	-0.0061091683
43	0xbd1a5d7d	-0.037686814
44	0x3bc1ddfb	0.0059163547
45	0x3d617c48	0.055050164
46	0x3bc2b29d	0.0059417025
47	0xbda8a07c	-0.08233735
48	0xbcb800e2	-0.022461358
49	0x3cb48435	0.022035697
50	0x3d41dca5	0.047329564
51	0xbc2668f1	-0.010156856
52	0xbcf61779	-0.03004049
53	0xbd4898c2	-0.048973806
54	0xbd57465b	-0.05255733
55	0x3d5492a9	0.05189768
56	0x3d18cb53	0.03730328
57	0x3d0d55c8	0.034505635
58	0xbd133057	-0.035934772
59	0x3cddff89	0.027099388
60	0x3d191122	0.037369855
61	0x3d667671	0.0562653
62	0x3cc831ce	0.024437811
63	0x3cb9aa6d	0.022664273
64	0xbcaa254d	-0.02076974
65	0x3cf5f7e6	0.030025434
66	0x3cca5ab4	0.024701454
67	0x3c9ffbae	0.01952919
68	0xbd92f0da	-0.07174845
69	0xbc8c7608	-0.017146125
70	0xbc874471	-0.016512128
71	0xbc7c9101	-0.015415431
72	0xbd600a32	-0.054697223
73	0xbd82ce04	-0.063869506
74	0xbd68c199	-0.056825254
75	0xbd2fc0d6	-0.042908512
76	0xbd15daed	-0.036585737
77	0x3ca69b88	0.020337835
78	0xbd657c09	-0.056026492
79	0x3b49a93c	0.0030771038
80	0x3bf49886	0.0074644713
81	0xbcf08499	-0.029360102
82	0xbc0d766e	-0.008634193
83	0xbd947e5c	-0.07250664
84	0xbcafa292	-0.021439824
85	0x3cca42fd	0.024690146
86	0x3d2b00b8	0.041748732
87	0x3c1b2177	0.009468428
88	0xbc812a97	-0.015767379
89	0x3ba8bb00	0.0051492453
90	0xbcdf24a9	-0.02723916
91	0x3cce73e6	0.025201749
92	0xbce15f2e	-0.027511206
93	0x3d0c90dd	0.03431784
94	0xbcf02ed4	-0.029319204
95	0x3cc65acf	0.024213223
96	0x3c9263da	0.017869879
97	0xbd254f33	-0.040358733
98	0xbce2ccbf	-0.027685521
99	0x3c146b37	0.009058765
100	0xbbe4e6f5	-0.00698554
101	0x3d807117	0.0627157
102	0x3d305253	0.04304726
103	0x3ceaac3c	0.02864658
104	0x3db9c676	0.090710565
105	0xbc3dc81a	-0.011583352
106	0xbc7b3610	-0.015332714
107	0xbcf6d9eb	-0.030133208
108	0x3d0df7d6	0.034660183
109	0x3d7e3935	0.062066276
110	0x3be76e25	0.007062691
111	0xbd6699e0	-0.05629909
112	0xbd8ac935	-0.067766584
113	0xbd5d4c89	-0.054028068
114	0xbc6b5e7a	-0.014365787
115	0x3dba7182	0.09103681
116	0xbb128abc	-0.0022360524
117	0xbd5fba49	-0.054621015
118	0x3c8e8a21	0.01739985
119	0x3b93b82b	0.0045080385
120	0xbd94de5d	-0.07268975
121	0xbb9d310b	-0.004797106
122	0xbd82cefd	-0.06387136
123	0xbc4eed50	-0.012629822
124	0xbc68b259	-0.014202678
125	0x3c1bc277	0.009506813
126	0x3d15e944	0.036599413
127	0x3d5728fe	0.052529328
128	0x3c063d25	0.008193289
129	0x3d7cf973	0.06176133
130	0xbd85b4e1	-0.065286405
131	0xbce1216a	-0.027481753
132	0xbbe92a1c	-0.0071156155
133	0xbd4bc997	-0.049752798
134	0xbcfb0073	-0.030639863
135	0xbd256862	-0.04038275
136	0xbad6091c	-0.0016329619
137	0xbd8fa614	-0.07014099
138	0xbca763d6	-0.020433348
139	0xbd0216f2	-0.031760164
140	0xbd393911	-0.04522044
141	0xbdc601d5	-0.09668318
142	0xbd3a8751	-0.045539204
143	0xbcbc7c54	-0.023008503
144	0x3cef4b5d	0.02921074
145	0xbc9f7c93	-0.019468581
146	0xb9ba9989	-0.00035591077
147	0x3a08a5a6	0.0005212672
148	0x3a708513	0.0009175103
149	0xbd6718a9	-0.056420002
150	0xbbc75e86	-0.006084266
151	0x3b7c890f	0.0038533842
152	0xbd9c1246	-0.07620673
153	0xbc2d6010	-0.010581985
154	0xbb957807	-0.0045614275
155	0xbd95a632	-0.0730709
156	0xbd5bee2d	-0.05369394
157	0xbdd25ef4	-0.10272017
158	0xbd3bdc12	-0.045864172
159	0xbc118ce1	-0.008883686
160	0xbd8e3cc8	-0.06945187
161	0xbdace084	-0.084412605
162	0xbdb7bbbb	-0.089713536
163	0xbdab38b0	-0.08360422
164	0x3cb1c67d	0.021701092
165	0xbcad27e0	-0.021137178
166	0xbdd5d557	-0.10441082
167	0xbdb38bba	-0.08766885
168	0xbcaa2d1c	-0.020773463
169	0xbda22422	-0.07917048
170	0x3da6bdfa	0.08141704
171	0xbd55b274	-0.05217214
172	0xbd69af4f	-0.057051953
173	0xbd3433d7	-0.04399475
174	0x3b296803	0.002584935
175	0xbd912d60	-0.07088733
176	0xbd64dfb4	-0.055877402
177	0xbd30ac23	-0.043132912
178	0xbd5f6c26	-0.054546498
179	0xbac100ce	-0.0014724971
180	0xbd87247f	-0.06598758
181	0x3ce74f7f	0.028236149
182	0x3af8c635	0.0018979969
183	0x3d551fd8	0.05203232
184	0x3c9b622f	0.018967716
185	0xbcf2382f	-0.029567806
186	0xbceafc26	-0.028684687
187	0x3d3330a1	0.043747548
188	0x3d326967	0.04355755
189	0x3c6bac15	0.014384289
190	0xbcb3371a	-0.02187686
191	0x3bc3d564	0.005976366
192	0x3d0d8428	0.034549862
193	0x3c83ae51	0.016074331
194	0xbc6aec59	-0.014338576
195	0x3ceeb7c3	0.029140359
196	0x3ca4e0b2	0.020126674
197	0x3d23bfb9	0.039977763
198	0x3cd42758	0.025897667
199	0xbc2b7de3	-0.010467025
200	0x3e50cfe6	0.20391807
201	0x3d3c3564	0.045949355
202	0x3d2a892c	0.041634724
203	0x3d9efd34	0.077631384
204	0x3d7f7a4c	0.06237249
205	0x3b23513d	0.0024920248
206	0xbd89d8a6	-0.067307755
207	0xbda03889	-0.07823283
208	0xbc22977f	-0.009923815
209	0xbcba007b	-0.022705307
210	0xbdc03203	-0.09384539
211	0xbd9dc309	-0.07703216
212	0xbc8afed0	-0.016967207
213	0xbdae982b	-0.085251175
214	0xbd3b9f26	-0.045806073
215	0xbde62f7f	-0.11239528
216	0xbd8f5abe	-0.069997296
217	0x3a66b857	0.00088012725
218	0xbd57beb4	-0.052672103
219	0xbd5955b8	-0.053060263
220	0xbda8c80d	-0.08241282
221	0xbd9d429d	-0.07678721
222	0xbdb28425	-0.08716611
223	0xbdbdf55e	-0.09275316
224	0xbd80dd4b	-0.06292208
225	0x3d358b2d	0.04432218
226	0x3c1df0c4	0.0096399225
227	0xbc962025	-0.018325875
228	0xbc6a4fcb	-0.014301251
229	0x3d188f1a	0.037245847
230	0xbc2aeb8f	-0.010432138
231	0xbd440984	-0.047860637
232	0xbd7e402f	-0.06207293
233	0xbd363ec7	-0.044493463
234	0xbd0acc8f	-0.03388649
235	0x3d6ce6c5	0.057837266
236	0x3cc7f353	0.024408018
237	0x3d40429e	0.04693853
238	0x3d2be924	0.041970387
239	0x3da036dc	0.078229636
240	0x3d83f336	0.06442873
241	0x3d3c452d	0.04596441
242	0x3d8dbdde	0.0692098
243	0x3da13b0e	0.07872592
244	0x3d4df3ab	0.050281208
245	0xbd7953e4	-0.06087102
246	0xbc4477dd	-0.011991468
247	0xbd9719a6	-0.07377939
248	0x3d646d31	0.055768196
249	0x3d0e4d62	0.034741767
250	0x3d06bb47	0.032893445
251	0xbcb85d3c	-0.022505395
252	0xbd95ab50	-0.07308066
253	0xbc482ea7	-0.012218154
254	0xbc0d6579	-0.00863015
255	0xbd7ea46b	-0.06216852

fc1.bias f4 [120]
0	0xbba303da	-0.0049748244
1	0xbd46599a	-0.048425294
2	0x3e28ea56	0.16495642
3	0x3e1d0d22	0.15337041
4	0x3ca77a96	0.020444196
5	0x3dc588a2	0.09645201
6	0x3c9dcdae	0.019263115
7	0x3db323a8	0.08747035
8	0xbd765207	-0.06013682
9	0x3ceee343	0.029161101
10	0xbd51047e	-0.051029675
11	0xbdc06b87	-0.09395509
12	0xbe1e1ae8	-0.15439951
13	0xbd17e5be	-0.037084334
14	0xbd0897de	-0.033347957
15	0x3dec92cd	0.115514375
16	0x3de541a7	0.11194163
17	0xbdb5a263	-0.088688634
18	0xbd527f5f	-0.051391
19	0x3e8388e1	0.25690368
20	0x3b03cae9	0.0020109958
21	0x3e74ba43	0.23899178
22	0xbdcae0f5	-0.099061884
23	0xbcef733b	-0.02922975
24	0xbd5fbf96	-0.05462607
25	0x3c9cc093	0.019134795
26	0xbd896324	-0.06708363
27	0xbbfcd81f	-0.0077161933
28	0x3de4b572	0.111674204
29	0x3dafa7d0	0.085769296
30	0x3e126017	0.14294468
31	0xbc848cf0	-0.016180485
32	0x3cf3cc3e	0.029760476
33	0x3daa64c7	0.08320003
34	0xbd484404	-0.04889299
35	0x3be1266f	0.0068710367
36	0x3d8326d6	0.06403892
37	0x3e0fc901	0.1404152
38	0xbacbce51	-0.0015549158
39	0x3de78f79	0.11306662
40	0x3d9a597b	0.07536598
41	0x3db15616	0.08658998
42	0xbd4257e4	-0.0474471
43	0x3e0e7622	0.13912252
44	0x3ddca8d1	0.10774387
45	0xbca8bcaa	-0.020597775
46	0x3df61f3f	0.120176785
47	0x3cccb045	0.024986396
48	0x3d48b879	0.04900405
49	0xbc977611	-0.018488916
50	0x3e0de9e1	0.13858749
51	0xbd7424c6	-0.059605382
52	0x3d92d941	0.07170344
53	0xbe04bcb2	-0.12962607
54	0xbce27df3	-0.027647948
55	0xbd9f5ffb	-0.07781979
56	0x3d3f0c3d	0.04664253
57	0x3de21ea2	0.11040999
58	0x3d38983e	0.045067064
59	0xbc2cca20	-0.010546237
60	0xba791ed6	-0.0009503191
61	0xbc4da256	-0.012550911
62	0xbd7fa77b	-0.06241558
63	0xbd5e164c	-0.054220483
64	0xbb838b6f	-0.0040144245
65	0x3cb69d0d	0.022291685
66	0x3c783893	0.015150207
67	0xbd53fe38	-0.051756114
68	0x3d9df6f0	0.07713115
69	0x3d393d61	0.04522455
70	0xbd1f7bc0	-0.038936377
71	0xbd0fd55c	-0.035115585
72	0x3d9b5761	0.075850256
73	0x3d35aeb4	0.044356063
74	0x3c9203c9	0.01782407
75	0xbb3a884a	-0.0028462582
76	0x3da3b041	0.07992602
77	0xbd356395	-0.044284422
78	0xbe450bff	-0.19242857
79	0xbc0b0e46	-0.00848729
80	0x3daed558	0.08536786
81	0x3e514cb6	0.20439419
82	0x3cacc6a6	0.021090817
83	0xbac66574	-0.0015136437
84	0xbcd53ade	-0.026029047
85	0x3e3b6f14	0.18304092
86	0x3d3cd7cd	0.04610424
87	0x3dc4b830	0.096054435
88	0xbe06d36e	-0.13166592
89	0xbc86625f	-0.016404329
90	0x3ce18574	0.027529456
91	0xbcfc1174	-0.030770041
92	0xbdb32437	-0.08747142
93	0x3cd8cb9b	0.026464274
94	0xbda519ba	-0.080615476
95	0xbc232934	-0.009958554
96	0x3cfbf757	0.03075759
97	0x3d03dba7	0.0321919
98	0x3de3913c	0.11111686
99	0x3c4395af	0.011937543
100	0xbb82bad3	-0.0039895563
101	0x3b862c08	0.0040946044
102	0x3dcf06e4	0.10108736
103	0x3e21ea92	0.15812138
104	0x3e2a2350	0.16615033
105	0x3dff6d7c	0.12472054
106	0xbd43d26f	-0.047808107
107	0x3d1ef5da	0.03880868
108	0xbd21794f	-0.03942233
109	0xbe7cbefb	-0.24682228
110	0x3d71cfc4	0.05903603
111	0x3c88a02b	0.016677937
112	0xbbe13af8	-0.0068734847
113	0x3cbd3212	0.023095164
114	0x3c24fb42	0.01006967
115	0x3db78270	0.08960426
116	0xbd5a2efe	-0.05326747
117	0xbdacde1d	-0.08440802
118	0x3d8be89f	0.06831478
119	0xbc3e4dc8	-0.011615224

fc2.weight f4 [84, 120]
0	0xbdd53c48	-0.10411888
1	0x3d235811	0.03987891
2	0x3d3d7721	0.04625619
3	0x3d466b4d	0.048442174
4	0xbbee494d	-0.0072719217
5	0xbc232351	-0.009957151
6	0xbc1c4a5b	-0.009539212
7	0xbd0db6b2	-0.03459806
8	0xbc1c9972	-0.009558069
9	0x3ccc3292	0.024926458
10	0x3c4b41ca	0.012405822
11	0xbdb1c15b	-0.08679458
12	0x3d3ce436	0.046116076
13	0xbbdea015	-0.0067939856
14	0x3c82d5e6	0.015971135
15	0x3bc194f1	0.005907648
16	0xbd886642	-0.06660129
17	0xbd0088c9	-0.03138045
18	0xbcd30a1c	-0.025761656
19	0x3c2b2930	0.010446832
20	0x3d29a0ca	0.041413106
21	0x3c9e2202	0.019303326
22	0xba0f7a43	-0.00054732355
23	0xbcf38dec	-0.02973076
24	0x3d3f6c6a	0.04673425
25	0x3d722189	0.059114013
26	0xbd9b350f	-0.075784795
27	0x3cc20d5a	0.023688007
28	0xbdc313e7	-0.095252804
29	0x3d2ecd01	0.042675976
30	0x3ddf8a55	0.109150566
31	0xbd1c4bb6	-0.03815814
32	0xbbd83368	-0.006597925
33	0xbc314028	-0.010818519
34	0x3d40c6e0	0.047064662
35	0xbd51e07d	-0.05123948
36	0x3da096dd	0.07841275
37	0x3d8da4ba	0.06916185
38	0xbd691a90	-0.056910098
39	0x3cd0daf1	0.025495024
40	0x3dcd0147	0.10010009
41	0xbd57240f	-0.052524623
42	0xbd1d184a	-0.038353242
43	0x3dba6181	0.09100629
44	0x3d869013	0.06570449
45	0x3c26283e	0.01014143
46	0x3df58639	0.119884916
47	0x3c8dd069	0.017311292
48	0x3d5dbb65	0.05413379
49	0x3d5d9b51	0.0541032
50	0x3d9f7992	0.077868596
51	0xbcea56f0	-0.028605908
52	0x3cfc56e0	0.030803144
53	0x3cc03c45	0.023466239
54	0xbd17fb80	-0.037105083
55	0xbc5e9475	-0.0135852
56	0xbd47bc54	-0.048763588
57	0x3ced9672	0.029002402
58	0x3cef4ad8	0.029210493
59	0xbd5dd1ee	-0.054155283
60	0x3d437566	0.04771938
61	0x3dc2854b	0.0949808
62	0x3d004a4d	0.03132086
63	0x3aa12026	0.0012292906
64	0x3c3e114f	0.011600806
65	0xbd90aa3c	-0.0706372
66	0x3c093a6e	0.008375747
67	0xbd84f070	-0.06491172
68	0xbd42cd7c	-0.047559246
69	0xbd4bcf07	-0.049757984
70	0x3d14f72c	0.036368534
71	0xbd686321	-0.05673516
72	0xbca2cb4c	-0.01987233
73	0x3c05105c	0.008121576
74	0xbcfabf23	-0.03060872
75	0xbd8913c3	-0.066932224
76	0x3d0a4b5e	0.033763282
77	0x3d8076bc	0.06272647
78	0xbdac9f88	-0.08428866
79	0xbd2f1e49	-0.04275349
80	0x3c577259	0.013149821
81	0xbd4eb21f	-0.05046284
82	0xbd594887	-0.053047683
83	0x3d5ea2ca	0.054354466
84	0xbc4ecbc5	-0.012621825
85	0xbd38d6b5	-0.045126636
86	0xbd9ba765	-0.07600287
87	0x3b96e1c3	0.0046045496
88	0xbd4a6dac	-0.049420998
89	0xbd4a260b	-0.049352687
90	0xbd7953f8	-0.060871094
91	0xbd49d17c	-0.049272045
92	0xbc185af3	-0.009299028
93	0x3d2829ab	0.041055363
94	0x3d838490	0.06421769
95	0x3cbb94a9	0.022898035
96	0x3d001779	0.031272385
97	0xbd8a0370	-0.06738937
98	0x3cdf2139	0.027237521
99	0x3c161e2e	0.009162469
100	0x3d0a5873	0.033775758
101	0xbae65537	-0.0017573003
102	0xbca15aba	-0.019696582
103	0xbd9459a4	-0.0724366
104	0x3d92ca73	0.071675204
105	0x3d4b996d	0.049706865
106	0xbd31c0c8	-0.04339674
107	0xbd7986aa	-0.06091944
108	0xbcabb51b	-0.020960381
109	0xbc8441c5	-0.016144643
110	0xbb624ae1	-0.0034529495
111	0x3d00c542	0.03143812
112	0x3d5d5bb2	0.054042526
113	0x3bac0878	0.005250033
114	0x3a5c3a3a	0.00084010104
115	0xbc810469	-0.015749173
116	0x3d6b96f4	0.057517007
117	0x3d987267	0.074436955
118	0xbd65523d	-0.05598663
119	0xbdb7ad9e	-0.08968662
120	0x3d0c14e1	0.0341996
121	0xbc631523	-0.01386002
122	0x3e14eac3	0.1454268
123	0x3ca86392	0.020555291
124	0xbda40248	-0.080082476
125	0xbd1e0205	-0.038576145
126	0xbcfe8551	-0.03106943
127	0xbd904422	-0.07044245
128	0x3b0f25b4	0.0021842541
129	0xbd66a7c7	-0.05631235
130	0x3d203f7d	0.039123047
131	0xbd1226b7	-0.035681453
132	0x3c5f3254	0.013622839
133	0xbd7b7bd2	-0.06139738
134	0xbd7630a8	-0.060104996
135	0xbd510392	-0.051028796
136	0xbd9ef99c	-0.07762453
137	0x3cb2e870	0.02183935
138	0x3db7f654	0.0898253
139	0xbd1b28c0	-0.03788066
140	0xbdba4317	-0.090948276
141	0x3dd4ec9d	0.10396693
142	0xbc7c8e0e	-0.015414728
143	0xbda290d5	-0.07937781
144	0x3dfdf3ea	0.124000385
145	0xbd7fcbeb	-0.06245033
146	0xbdc06b7f	-0.09395503
147	0x3dc80bdb	0.09767886
148	0xbc341510	-0.01099135
149	0x3d16712c	0.036729023
150	0x3c8c73d4	0.017145075
151	0xbdbbe477	-0.091744356
152	0xbc2ae923	-0.010431561
153	0xbcb6fb79	-0.022336708
154	0xbbca2d0f	-0.006169922
155	0x3d9a2ce9	0.07528097
156	0x3d31dd63	0.04342402
157	0x3dac6bff	0.08419036
158	0xbb0f6361	-0.0021879303
159	0x3d78b95d	0.06072365
160	0x3d7cfbd1	0.06176359
161	0xbbaf3cbc	-0.0053478163
162	0xbd2e6dd0	-0.042585194
163	0xbd578790	-0.052619517
164	0x3c676580	0.014123321
165	0x3c806f07	0.015677942
166	0x3dd147a6	0.10218744
167	0xbda0f61f	-0.07859444
168	0xbcf3be6d	-0.029753888
169	0xbdd5a020	-0.10430932
170	0xbd62452f	-0.05524176
171	0x3e25d467	0.16194306
172	0x3b0bc52b	0.0021327238
173	0xbdb17832	-0.086655036
174	0x3d067704	0.032828346
175	0xbcea3714	-0.028590716
176	0x3d32c7e0	0.043647647
177	0x3d21744b	0.039417546
178	0x3c526f3c	0.012843903
179	0x3db20534	0.08692399
180	0x3cbf7630	0.023371786
181	0xbd055d44	-0.03255965
182	0x3d8809ec	0.066425174
183	0x3db91b00	0.09038353
184	0x3c633c0a	0.013869295
185	0xbd1aa66f	-0.03775638
186	0xbcf74ccb	-0.030187985
187	0xbd352e9e	-0.04423391
188	0x3a8f8a2d	0.0010951214
189	0x3cbb8903	0.02289248
190	0x3d95e493	0.07318988
191	0xbd1b5a1a	-0.037927724
192	0x3d9e9317	0.07742899
193	0xbc3171ec	-0.010830384
194	0xbddb7280	-0.107151985
195	0xbd9be478	-0.07611936
196	0x3d8c1e8c	0.06841764
197	0xbd5fa3da	-0.05459962
198	0xbd439389	-0.047748122
199	0x3d8cab66	0.06868629
200	0x3b56ae55	0.0032757719
201	0xbb175df6	-0.0023096777
202	0xbd5db9b2	-0.05413217
203	0xbdc47873	-0.09593286
204	0xbc64d516	-0.013966819
205	0x3bdda452	0.0067639733
206	0xbd8e4ff7	-0.06948846
207	0x3db01c58	0.08599156
208	0x3d2490d2	0.040177174
209	0x3d250c1b	0.040294748
210	0x3ca5f15f	0.020256696
211	0xbd42880d	-0.04749303
212	0x3d7df7f7	0.062004056
213	0x3d36fe4d	0.044676114
214	0x3d985b5a	0.07439299
215	0xbd68fab9	-0.056879733
216	0x3c372c0f	0.011179938
217	0xbd33e47a	-0.043919064
218	0x3d3001e5	0.042970557
219	0xbd96dca3	-0.07366302
220	0xbd8b6386	-0.06806092
221	0xbce8684e	-0.028370049
222	0x3d1ee105	0.038788814
223	0xbd1fb9de	-0.038995616
224	0xbbeabc38	-0.0071635507
225	0x3ce3259d	0.027727896
226	0x3dde685d	0.108597495
227	0xbdccfe76	-0.10009472
228	0x3d7991bd	0.060930002
229	0x3cdf5055	0.027259985
230	0xbdc2f91a	-0.095201686
231	0xbc52f815	-0.01287653
232	0xbbe45747	-0.006968412
233	0xbdc5063b	-0.09620329
234	0x3d1199c7	0.035547044
235	0xbc8d1b89	-0.017225044
236	0x3d55d4a8	0.052204758
237	0x3cd42a73	0.025899148
238	0xbd42703f	-0.047470327
239	0x3d974daa	0.0738786
240	0x3cf1a7a7	0.029498888
241	0x3d8c6011	0.06854261
242	0x3ad4ae4b	0.001622626
243	0x3c74e9ea	0.014948348
244	0xbd278bf6	-0.04090496
245	0xbc54c1ba	-0.012985641
246	0xbd3c942d	-0.04603975
247	0xbd4d8398	-0.050174326
248	0x3cc551b6	0.024086814
249	0xbc998a9a	-0.018742848
250	0x3d11521d	0.0354787
251	0xbd99a2d3	-0.075017594
252	0x3dd461ec	0.103702396
253	0xbdaec0fe	-0.08532904
254	0xbdfabb0c	-0.122427076
255	0xbd8abecf	-0.06774675

fc2.bias f4 [84]
0	0xbd262103	-0.040558826
1	0x3d1ca8e8	0.03824702
2	0x3d0b4890	0.034004748
3	0x3e807f26	0.25097007
4	0xbd0bbbc2	-0.034114607
5	0xbc913ad6	-0.01772825
6	0xbdbad767	-0.09123116
7	0xbdb28fcd	-0.08718834
8	0x3caefc61	0.021360578
9	0xbd8e871f	-0.06959366
10	0x3e4e8c10	0.20170617
11	0x3de6c6b4	0.11268368
12	0xbdaafbd2	-0.08348812
13	0x3e3506d1	0.17678382
14	0x3dceec3f	0.10103654
15	0xbdbdacee	-0.09261499
16	0x3c769239	0.015049511
17	0x3dd99d4a	0.10625704
18	0x3d2564e1	0.04037941
19	0xbd1a14bf	-0.03761744
20	0x3dcad3eb	0.099037014
21	0x3e7f2ff6	0.2492064
22	0x3cb27e18	0.021788642
23	0x3de649f6	0.11244576
24	0x3e232704	0.15932852
25	0x3e10f0ee	0.14154407
26	0xbc0efea8	-0.008727707
27	0x3e51fd42	0.20506766
28	0x3dcf995c	0.10136673
29	0x3e896fa4	0.26842988
30	0x3e482af4	0.19547635
31	0x3e8d5c19	0.27609327
32	0xbdca548d	-0.09879408
33	0x3d608c00	0.054821014
34	0xbd39858a	-0.04529337
35	0x3ea6937c	0.32534397
36	0x3d582a7c	0.05277489
37	0xbe597b70	-0.21238494
38	0xbda82dae	-0.08211838
39	0x3d410b3a	0.047129847
40	0x3e12f545	0.14351375
41	0x3e6798e7	0.22616921
42	0x3ce62d78	0.028097853
43	0xbd9a2e40	-0.07528353
44	0xbdb76b9d	-0.089560725
45	0xbd108233	-0.035280418
46	0xbd73223c	-0.05935882
47	0xbd861b49	-0.06548173
48	0x3e586345	0.21131618
49	0xbc46d598	-0.012135886
50	0x3d46ddd5	0.0485514
51	0xbd048b3f	-0.032359358
52	0x3e0c259f	0.13686226
53	0xbd94da10	-0.072681546
54	0x3e8bfdc9	0.2734206
55	0x3ed029bc	0.4065684
56	0x3d9fa695	0.07795445
57	0x3e647ae1	0.223125
58	0xbd3f8db8	-0.046766013
59	0x3d71e7fc	0.05905913
60	0x3eafe164	0.34351647
61	0x3e8ce946	0.27521724
62	0xbdf1848f	-0.11792862
63	0x3e34d948	0.17661011
64	0x3b5f1384	0.0034038732
65	0x3a19351c	0.0005844401
66	0x3b8fde6c	0.0043905284
67	0xbdc521fd	-0.096256234
68	0x3ddeb7da	0.10874911
69	0x3e37423a	0.17896357
70	0x3dd13c9f	0.10216641
71	0x3dc1354f	0.09433996
72	0xbd6f8217	-0.058473673
73	0x3d9f26d2	0.07771076
74	0xbd86514e	-0.065584764
75	0xbdbe67f5	-0.09297172
76	0xbcb6d66a	-0.022319037
77	0x3df251ed	0.11832032
78	0x3e37ffa7	0.17968617
79	0x3d46055f	0.048344966
80	0x3dd45b3e	0.103689656
81	0x3e4e3fe3	0.20141558
82	0x3d830518	0.06397456
83	0x3dffc580	0.12488842

fc3.weight f4 [10, 84]
0	0x3db021f5	0.08600227
1	0x3e739317	0.23786579
2	0x3c82dc13	0.01597408
3	0xbe3898cd	-0.18027039
4	0x3e67f291	0.22651125
5	0xbe34065d	-0.17580552
6	0x3e0b7252	0.13617828
7	0x3eb40f5b	0.35167965
8	0x3de25115	0.110506214
9	0x360732a0	2.0146035e-06
10	0xbdcb1134	-0.099153906
11	0xbe5a11b0	-0.2129581
12	0xbb75fd55	-0.003753503
13	0x3d81585e	0.06315683
14	0xbc9d7a3c	-0.019223325
15	0xbc5f00c7	-0.013611025
16	0xbdc3ffd0	-0.09570277
17	0x3daafba1	0.08348776
18	0x3ca999f5	0.020703295
19	0x3e24708f	0.16058563
20	0xbd927fbe	-0.07153271
21	0xbd18aab7	-0.03727218
22	0x3dd61756	0.1045367
23	0xbdfea8d4	-0.12434545
24	0xbd8c9ad8	-0.068654716
25	0x3d1384f3	0.036015462
26	0x3d086333	0.03329773
27	0xbd4ae27e	-0.049532406
28	0x3e0b1ce5	0.13585241
29	0xbe71f0c8	-0.23627007
30	0xbb4d4b58	-0.0031325426
31	0xbe818440	-0.2529621
32	0x3cd2dc6a	0.025739867
33	0xbd5d4633	-0.054022025
34	0xbcfa0008	-0.030517593
35	0x3eb32f0d	0.34996834
36	0x3e02f5bb	0.12789051
37	0x3d33b444	0.043873087
38	0xbcc4761e	-0.023982104
39	0x3deb639e	0.1149361
40	0x3dbabac4	0.09117654
41	0x3e5ae17b	0.21375076
42	0xbe25540a	-0.1614534
43	0x3dd28774	0.10279742
44	0xbc19b0c7	-0.009380526
45	0x3d957882	0.07298376
46	0xbca057ee	-0.019573178
47	0xbd867495	-0.06565205
48	0x3df75f26	0.12078695
49	0x3ca0c95d	0.019627267
50	0xbe22f6d6	-0.15914473
51	0x3e02a23a	0.12757197
52	0xbd4e8797	-0.050422277
53	0xbd728901	-0.05921269
54	0xbe69625e	-0.2279143
55	0xbd6950a0	-0.056961656
56	0x3e239866	0.15976104
57	0xbe32caa2	-0.17460111
58	0x3d49fd27	0.04931369
59	0xbbd61eff	-0.0065344567
60	0x3e3a7639	0.18209161
61	0xbdccdf4d	-0.10003529
62	0xbd5ea8ec	-0.054360315
63	0xbdc2b2d1	-0.09506763
64	0x3ebc5e6a	0.36790782
65	0xbdb0e9cc	-0.08638343
66	0x3d3cb97e	0.046075337
67	0xbdbf2291	-0.09332765
68	0xbdfd9883	-0.12382605
69	0x3d45201c	0.048126325
70	0x3dc143fc	0.09436795
71	0x3c881c9c	0.016615205
72	0x3c8c700e	0.017143276
73	0x3c802c69	0.015646176
74	0x3d56b9a4	0.052423134
75	0xbcdc7e69	-0.026915746
76	0xbd14c4e8	-0.036320597
77	0xbd1b5950	-0.037926972
78	0xbc883c9b	-0.016630461
79	0xbc8703f9	-0.016481386
80	0xbc72096e	-0.014772756
81	0x3c9e9d59	0.019362139
82	0xbe01eb27	-0.1268736
83	0xbe1e091b	-0.15433161
84	0xbd2a58bc	-0.04158853
85	0x3e21edf6	0.15813431
86	0x3e528eb1	0.20562245
87	0xbd2cce54	-0.042188957
88	0x3d19f38e	0.037585787
89	0x3e38d459	0.18049754
90	0x3d0a9d7e	0.033841603
91	0xbd2fc853	-0.042915653
92	0x3be8d223	0.0071051284
93	0x3dd419d7	0.10356491
94	0xbda06488	-0.07831675
95	0xbd1e6601	-0.038671497
96	0x3d197c78	0.03747222
97	0xbe54ee2e	-0.20793983
98	0xbe233c45	-0.1594096
99	0xbc7090eb	-0.014682989
100	0xbd12b5aa	-0.03581778
101	0x3aebcaa2	0.0017989466
102	0x3d8fc43b	0.0701985
103	0xbe46047b	-0.19337647
104	0xbcd92c5e	-0.026510414
105	0xbcbd7cc3	-0.02313078
106	0x3ea09e2f	0.31370685
107	0xbd1cfbb1	-0.03832597
108	0xbcfdb2c0	-0.030969024
109	0xbdb62a1b	-0.0889475
110	0x3d03893e	0.032113306
111	0xbe79d61a	-0.2439808
112	0x3cc45a19	0.023968743
113	0xbd94b333	-0.07260742
114	0x3df79c15	0.12090317
115	0xbe0d5ab7	-0.13804136
116	0x3d590391	0.052981917
117	0xbea7a076	-0.3273961
118	0xbdbdc969	-0.092669316
119	0x3da78147	0.081789546
120	0x3d68745b	0.05675159
121	0x3ea2abff	0.31771848
122	0x3d65e814	0.05612953
123	0xbd9bbc0b	-0.07604226
124	0xbe8a6c5e	-0.27035803
125	0x3e7ee200	0.248909
126	0x3ebd284e	0.36944813
127	0xbd4b2a80	-0.049601078
128	0x3d34e302	0.044161804
129	0xbd5f2a0c	-0.05448346
130	0xbd359e6e	-0.044340543
131	0x3dcd7fef	0.10034167
132	0xbe28b389	-0.16474737
133	0x3d0305b4	0.03198786
134	0x3dfebf51	0.124388345
135	0xbd7f15ef	-0.062276777
136	0xbdb5457d	-0.088511445
137	0x3cdbf177	0.026848538
138	0xbe4142f3	-0.18873195
139	0xbe7f8ffd	-0.24957271
140	0x3cfdd718	0.030986354
141	0xbdebe7da	-0.115188316
142	0x3d1b9e01	0.03799248
143	0xbcc9420a	-0.024567623
144	0xbecfde97	-0.4059951
145	0x3bfd9493	0.0077386587
146	0x3d6781c6	0.056520246
147	0xbdccd630	-0.100017905
148	0x3e3c8553	0.18410234
149	0xbc5ed40e	-0.013600362
150	0xbe2e1181	-0.16998865
151	0x3de50649	0.111828394
152	0x3cb3accf	0.021932987
153	0xbe7140ba	-0.23559847
154	0x3db7c04a	0.08972223
155	0xbc35518f	-0.011066808
156	0x3d0f188d	0.034935523
157	0xbc6dd351	-0.014515714
158	0x3eb84cf1	0.35996202
159	0x3d09a779	0.03360698
160	0xbd783e92	-0.060606547
161	0x3c6094bb	0.013707335
162	0xbe586b4a	-0.21134678
163	0xbc089ccd	-0.0083381655
164	0x3df614d4	0.120156914
165	0xbe3b0c89	-0.182665
166	0x3da564ce	0.080758676
167	0xbe2339a0	-0.15939951
168	0x3d1007a2	0.03516353
169	0xbe0bfcf5	-0.13670714
170	0xbe19558a	-0.14974037
171	0x3c2640f5	0.010147323
172	0x3dc95982	0.098315254
173	0x3d8f1afb	0.06987568
174	0x3e0da3c0	0.13831997
175	0x3e1501de	0.14551494
176	0x3d16ce28	0.0368177
177	0x3ca7d749	0.020488398
178	0x3e1b85ed	0.15187807
179	0x3d941a71	0.07231606
180	0xbc9554e7	-0.018228961
181	0x3e4e275b	0.201322
182	0x3d99cd20	0.075098276
183	0xbde0d2a2	-0.10977675
184	0xbd8bb6f4	-0.06822005
185	0xbdd89c9f	-0.10576748
186	0xbdd909c4	-0.10597566
187	0xbd89f532	-0.067362204
188	0xbd25f89d	-0.0405203
189	0x3e84f895	0.25970903
190	0xbe835302	-0.25649267
191	0x3d5e4455	0.054264385
192	0xbd95981c	-0.07304403
193	0x3d93a7a6	0.07209711
194	0x3e4e42d6	0.20142683
195	0xbcda6c39	-0.026662933
196	0xbddd8780	-0.1081686
197	0xbd908df0	-0.070583224
198	0xbd8b5a19	-0.06804294
199	0x3e368e60	0.17827749
200	0x3de78e42	0.113064304
201	0x3d19e9a6	0.03757634
202	0xbd9bc5fa	-0.076061204
203	0xbd92b17e	-0.0716276
204	0x3da047ee	0.078262195
205	0xbe03e8df	-0.12881802
206	0x3c9eb70d	0.019374395
207	0xbd8afe58	-0.067867935
208	0x3e409ed8	0.18810594
209	0xbe003002	-0.12518314
210	0xbe07ee4d	-0.13274498
211	0x3c9dda45	0.019269118
212	0x3e276333	0.16346435
213	0x3c4b5667	0.012410737
214	0x3d8776bc	0.06614444
215	0xbdc4032c	-0.095709175
216	0xbd64b404	-0.05583574
217	0xbd725748	-0.05916527
218	0xbda7c3ca	-0.08191641
219	0x3d132970	0.03592819
220	0xbe37d239	-0.17951287
221	0x3da20f51	0.079130776
222	0x3e033ac2	0.12815383
223	0x3e699fdd	0.22814889
224	0x3e844536	0.25834054
225	0xbe2bf034	-0.16790849
226	0xbcfd6504	-0.030931957
227	0x3e01034a	0.12598911
228	0x3e9cd1dd	0.30628863
229	0x3e2d87f3	0.16946392
230	0xbd866c1b	-0.06563588
231	0xbe444f48	-0.19170868
232	0x3c43f1f8	0.011959545
233	0xbd3cbfa2	-0.046081193
234	0x3ccd541e	0.025064524
235	0x3c999bab	0.018750986
236	0xbd2cf60d	-0.04222684
237	0x3d311916	0.043236814
238	0xbc1e1966	-0.00964961
239	0xbda54ff0	-0.080718875
240	0xbc80f4b0	-0.015741676
241	0x3e0c62cb	0.13709562
242	0x3e2e59fe	0.17026517
243	0xbc22ce11	-0.009936825
244	0x3d27e654	0.040991142
245	0x3cacc190	0.021088392
246	0x3e39590d	0.18100376
247	0x3d34bb3e	0.04412388
248	0xbe47e3d8	-0.19520509
249	0x3d077797	0.033073034
250	0xbda9f469	-0.08298571
251	0x3e817165	0.25281826
252	0x3ce70bae	0.028203811
253	0x3c5bd4e7	0.013417459
254	0xbdef2e0b	-0.11678704
255	0x3e37a763	0.17934947

fc3.bias f4 [10]
0	0xbd9f195e	-0.0776851
1	0xbef4c98c	-0.47810018
2	0x3d4f5b30	0.050624073
3	0x3e85f4a0	0.26163197
4	0x3f006c20	0.50164986
5	0xbe4eed86	-0.20207796
6	0x3d85a801	0.06526185
7	0xbe6be102	-0.23035052
8	0x3eb64c19	0.35604933
9	0xbe1505b3	-0.14552955
